neural_network_classifier/expansion_mlp.pt (torch, 180574 bytes, 13 tensors)

net.0.weight f4 [256, 35]
000000 68 eb 57 bd 61 7e 26 bd b2 06 53 bd f0 29 14 be
       -0.052714735 -0.040647868 -0.051520057 -0.14469123
000010 92 b5 d0 bc 4f 0d c4 be 90 c1 61 bc 98 aa 3b 3d
       -0.025477204 -0.38291404 -0.013779059 0.045816988
000020 e9 8c 09 bd df 7e 3f 3b a6 a2 48 bc b5 47 0e bd
       -0.033581648 0.0029219908 -0.01224581 -0.034736354
000030 3b 78 aa bd 02 5b cb 3b 6a 74 2b bf f4 75 2c 3d
       -0.083237134 0.0062059173 -0.6697451 0.042104676
000040 2c dc 4f bd c2 ff b2 bc eb ed 8c 3c da ab 49 bd
       -0.05074708 -0.02185047 0.017203292 -0.049236156
000050 28 9c aa 38 5b a9 aa 38 43 25 83 3c 62 6a 3a 3d
       8.135318e-05 8.1377766e-05 0.016008979 0.04551161
000060 c4 f5 f2 3c 9d ca 8c bc 43 a0 41 bc 7c 7c 04 bd
       0.029658206 -0.017186457 -0.0118179945 -0.03234528
000070 8b 45 32 bc 4c e6 ce bd 13 5b a5 bd c5 ed 32 bc
       -0.010880838 -0.101025194 -0.08074012 -0.0109209465
000080 f4 ac 77 bd a0 44 98 bd fb 1f 98 3d d0 6a b9 bd
       -0.060467675 -0.07434964 0.07427975 -0.09053576
000090 0e 84 83 be 15 4e b9 bd 27 01 5e bd 85 f0 ed 3c
       -0.25686687 -0.09048096 -0.054200318 0.029045353
0000a0 75 12 17 bf 7e 25 af bb 17 e5 2c bb 80 bf 2d 3a
       -0.5901254 -0.0053450456 -0.0026381665 0.0006627962
0000b0 82 07 6c bb 8a ab c9 ba a2 8e 8f 39 ab af 03 bc
       -0.0036015217 -0.0015386206 0.00027381355 -0.008037488
0000c0 0a 4c 65 b9 b4 ae 35 3f fd bb e4 3b f6 1c 7a ba
       -0.00021867469 0.709697 0.0069804178 -0.00095410587
0000d0 6a af 36 bc ea 30 35 bb 98 8d 97 bd c3 9f 15 39
       -0.01115022 -0.0027647563 -0.07400054 0.00014269263
0000e0 de 9f 15 39 fb 74 b8 bd 35 b8 27 3e 18 fe 00 3e
       0.00014269302 -0.09006687 0.16378863 0.12596929
0000f0 b3 50 ac b9 ad 24 e3 bb 8e 55 0b bc 62 6c 0f bc
       -0.00032866522 -0.0069318623 -0.008504285 -0.008753868
000100 b3 c6 cd 3d bb 5f d0 3d 6a 1f d5 3d 9c 0b bf 3d
       0.100476645 0.10174509 0.104063824 0.09328386
000110 c3 14 e2 3c 46 d6 fa 3c 55 6a 55 be 63 67 44 be
       0.02759779 0.030619752 -0.20841344 -0.19180064
000120 12 41 96 bd 33 77 a9 be e2 4f 8a ba 1e 1c 5d be
       -0.0733663 -0.33098754 -0.0010552371 -0.21592757
000130 ac fb aa bb e4 ae 71 bb 92 16 ab 3b 1a 7c f8 3a
       -0.00521799 -0.0036877925 0.0052211965 0.0018957884
000140 47 d1 4c 3b 02 d5 16 bb a7 00 35 bb 08 42 a0 3b
       0.0031252669 -0.0023015146 -0.0027618797 0.004890684
000150 09 5a 30 3f dc d6 22 3b 68 03 08 bc 4c 7e c3 bd
       0.6888738 0.0024847304 -0.008301593 -0.095455736
000160 80 ad 15 3c a8 ba d9 bc 6c 48 06 ba dd 48 06 ba
       0.009135604 -0.026578262 -0.0005122486 -0.0005122552
000170 a3 dc d7 bd 12 85 22 3e b7 16 ab 3d f7 73 c5 bc
       -0.1054013 0.15871075 0.08353942 -0.024103148
000180 16 ff b9 bc 28 37 0d bc 62 b8 ca bc 0d 3a 64 3d
       -0.022704642 -0.008619107 -0.024746124 0.055719424
000190 d2 26 54 3d e5 2e 4a 3d 6f f5 6a 3d d6 52 3e 3c
       0.051794834 0.04936113 0.05736297 0.011616429
0001a0 08 a4 00 bb e1 34 20 bd ba a7 3d be 81 86 6f bd
       -0.001962902 -0.03911293 -0.18521014 -0.058477882
0001b0 96 91 03 3e 65 25 93 3c d2 5c 02 bf 03 fd ea 3b
       0.12848505 0.017962167 -0.5092288 0.0071712746
0001c0 da 7c c9 bc bd 58 95 3c 71 e8 e0 ba e4 06 9c bb
       -0.024595667 0.01823079 -0.0017159117 -0.0047615636
0001d0 19 0d ad bc 7b f8 56 3c fc 29 94 bc 6a 7f de 3e
       -0.02112441 0.013120766 -0.018086426 0.43456584
0001e0 ba 4c 67 bb 0f 72 ba 3c 8b 9e 11 3c 28 39 01 bc
       -0.0035293535 0.022759466 0.008887897 -0.007887162
0001f0 7e 3d 34 3e f5 64 23 b9 a7 64 23 b9 df 77 56 be
       0.17601582 -0.00015582501 -0.00015582387 -0.20944165
000200 fc ea 46 3d 75 7a e9 3d a5 06 08 3c 44 6a 0b 3c
       0.048563942 0.1140031 0.008302365 0.008509222
000210 25 f6 88 bb 6e 73 8c 3b 97 5f fe 3a 5e 71 a9 bb
       -0.0041797333 0.004286221 0.001940715 -0.005170985
000220 8f a4 8a bb c7 6b 57 bc b0 87 21 3c c0 da 86 bc
       -0.0042310427 -0.013148255 0.009859011 -0.01646173
000230 ae b6 10 be cb 50 0f 3b 02 28 41 3c b3 bb 33 3e
       -0.14132187 0.0021868225 0.011789324 0.1755207
000240 b0 ad 7e bb ee c4 66 be c6 b8 f5 3c 90 95 b8 bb
       -0.003886085 -0.2253606 0.029995333 -0.0056330636
000250 64 2b 3a bc fc 38 7a bb c1 31 58 3c 1e 65 e2 bd
       -0.011362884 -0.0038180938 0.013195456 -0.11054443
000260 10 c1 ee 3c 6e 19 8e 3d 5e 5b 39 3e 72 1c 28 3d
       0.029144794 0.06938444 0.1810126 0.041042753
000270 44 bc 87 be 85 ec 6c be 6b 02 8c bd f8 1a 98 bd
       -0.26510823 -0.231371 -0.06836399 -0.07427019
000280 c8 9c 09 b7 72 34 0b b7 1f 74 48 bd 42 68 85 be
       -8.20234e-06 -8.2972565e-06 -0.048938867 -0.26056105
000290 d9 e7 99 3e 5a 86 58 bc ef f2 ac 3c e7 6f 7f bd
       0.30059698 -0.013215626 0.021111934 -0.062362578
0002a0 58 ad 39 bb ad 91 d7 3d e7 60 86 3d 9c 0b 22 bd
       -0.002833208 0.10525832 0.065614514 -0.039561853
0002b0 8a 9c 88 3d e4 d5 83 3b 27 d7 98 bc 3c 54 53 bd
       0.066704825 0.0040233005 -0.01865728 -0.051594004
0002c0 df 55 f4 bb 2b 4e cb 3c f9 ef 8e ba 33 5c 57 be
       -0.0074565257 0.024817547 -0.0010905258 -0.21031265
0002d0 3e fe a7 3d 39 c6 c4 3c 5a 37 c8 3c d8 38 48 3c
       0.0820279 0.024020301 0.024440456 0.012220584
0002e0 2f c8 d0 bc 3a cd 0a 3d 57 d6 7b bd c3 bc c5 3c
       -0.02548608 0.033887126 -0.061483707 0.02413786
0002f0 61 11 4a 3d f4 db b0 3d 65 46 81 3d 82 d1 b2 3c
       0.04933298 0.08635703 0.06312255 0.021828417
000300 28 fe 0d 3e a9 06 0a bf 47 b7 2c be fc aa 96 b7
       0.13866484 -0.5391641 -0.1686679 -1.7961014e-05
000310 ca 8e 96 b7 84 93 35 3e d9 dc 0e 3e 31 96 5d be
       -1.7947885e-05 0.17732054 0.13951434 -0.21639325
000320 73 c9 c6 bd c8 06 6f bd 85 db 23 3d df 2e 15 3d
       -0.09706392 -0.058356076 0.040004272 0.036421653
000330 b5 b2 a6 3c 04 26 15 3d 14 8a ac bb 85 42 c1 3b
       0.020348886 0.036413208 -0.0052654836 0.0058978223
000340 5f 69 b0 3d 8f ef b6 bd 5f 3c 2f 3e 56 48 f8 3d
       0.08613848 -0.08932411 0.17112873 0.12123172
000350 d2 6e 53 3d a6 1e 79 be 2a ce ac bd ea 38 49 3e
       0.05161936 -0.24328098 -0.0843776 0.19650617
000360 55 68 8b bd b6 df fa 3c 55 79 40 bd 07 59 13 3c
       -0.06807009 0.030624252 -0.04699071 0.008993394
000370 77 1e dd 3c 72 dd f9 3c fd 29 4b bd 65 44 13 3d
       0.026992066 0.030501101 -0.04960059 0.035953898
000380 04 da f9 bc 20 95 a1 bc 95 7e a4 3d 3c 9c 1f 3e
       -0.030499466 -0.019724429 0.08031956 0.15586942
000390 14 3b 77 3e f4 02 e1 3b 14 f6 a2 35 b6 c1 a2 35
       0.2414363 0.006866807 1.2141559e-06 1.2126318e-06
0003a0 78 f6 dc 3d 9b 0a bf 3e 3a 9f da be 6c a2 0f be
       0.10789198 0.3731278 -0.42699605 -0.14026803
0003b0 ff ce e8 bc 00 1a a0 bd 99 f3 1a 3e 9c df 0a bd
       -0.028419016 -0.07817459 0.15131988 -0.033904657
0003c0 e3 0c 4e 3d 35 81 fb 3d 0b 4a 4f 39 6c 17 55 3d
       0.05030526 0.12280504 0.00019768642 0.05202429
0003d0 7f ba a2 bd 40 f9 2e 3d 21 f6 fd 3d a2 5c 42 3d
       -0.079457276 0.042718172 0.12400461 0.047451623
0003e0 61 41 36 bc 47 63 42 bc 2a 39 ec 3e b7 e3 6f ba
       -0.011123986 -0.01186449 0.46137363 -0.00091510586
0003f0 b9 1f 14 bb 6e 1b 78 ba f0 5f 05 bb ef ab 9c ba
       -0.0022601916 -0.00094645366 -0.0020351373 -0.0011953096

net.0.bias f4 [256]
000000 3e 87 0d 37 c3 d3 52 b8 54 0f a1 39 9f 70 4c 37
       8.435743e-06 -5.026512e-05 0.00030719733 1.2185569e-05
000010 28 25 c8 b5 48 2b 4f b7 fa bd d1 36 b2 ed cc b9
       -1.4911975e-06 -1.2348239e-05 6.2508016e-06 -0.0003908701
000020 e3 86 28 b7 70 fd 0e 37 58 29 bb b7 fc 4d 8a 37
       -1.0044986e-05 8.522868e-06 -2.231139e-05 1.6487196e-05
000030 5c d8 94 37 66 de 94 b6 8f 3e 8b b5 b5 60 26 b3
       1.7743725e-05 -4.4366343e-06 -1.0374514e-06 -3.873784e-08
000040 d6 c7 a9 37 e6 9b 67 b5 a0 11 83 36 7e 3e ab 36
       2.0239426e-05 -8.628107e-07 3.906156e-06 5.103472e-06
000050 3a 42 88 b6 9e 2b 43 b9 f6 b7 c4 b7 d0 bc d4 34
       -4.0608256e-06 -0.00018612898 -2.3450684e-05 3.9625456e-07
000060 80 57 e6 36 9c 38 cc b6 49 08 84 36 68 ed f1 b7
       6.8647205e-06 -6.086264e-06 3.934871e-06 -2.883999e-05
000070 44 7d a6 b7 6e e4 ba 37 e4 ec 0f b7 32 67 64 37
       -1.9847073e-05 2.2279299e-05 -8.57862e-06 1.3613886e-05
000080 df f9 5b 37 f8 c5 83 b6 c2 c7 b8 38 20 58 71 b5
       1.3111595e-05 -3.927151e-06 8.8110115e-05 -8.9907735e-07
000090 51 bf 96 36 19 b4 61 b7 93 bd b8 b6 a2 b8 12 36
       4.4926205e-06 -1.3452977e-05 -5.5056967e-06 2.1863166e-06
0000a0 22 98 02 b7 50 ef 7a b7 20 01 57 37 34 1c 3b 36
       -7.784025e-06 -1.49568805e-05 1.2815261e-05 2.7881588e-06
0000b0 72 e7 30 37 c1 e9 c8 b7 e0 d7 50 37 b9 36 4a b7
       1.0544305e-05 -2.3950708e-05 1.2448028e-05 -1.2052879e-05
0000c0 fe 74 24 37 80 2e 8a b5 9b dd fa 36 3e 49 7e 36
       9.802401e-06 -1.0295335e-06 7.476379e-06 3.7891582e-06
0000d0 e9 d4 07 b8 17 34 6c 36 d4 10 10 b9 2b 8b 88 37
       -3.2384796e-05 3.519706e-06 -0.00013739179 1.6277269e-05
0000e0 38 c8 c6 b6 55 a7 1a b7 f4 ca 6e 36 f8 72 4c 37
       -5.9241684e-06 -9.218075e-06 3.5582898e-06 1.2186116e-05
0000f0 6a 42 46 36 17 a5 38 b6 82 97 29 3a e4 97 9f b6
       2.9542957e-06 -2.7514232e-06 0.0006469415 -4.7562517e-06
000100 46 2e 5a 36 8a 87 98 32 da b9 d7 38 99 8c f2 b7
       3.2511466e-06 1.7756765e-08 0.000102866165 -2.8914119e-05
000110 d4 92 ec 36 a7 ba f4 36 76 7b 87 37 2e c2 6f b5
       7.050441e-06 7.293496e-06 1.6150745e-05 -8.9317007e-07
000120 92 c1 a6 37 89 fd 48 b6 d2 0b 11 37 14 db 5d 37
       1.987888e-05 -2.99499e-06 8.645426e-06 1.3223635e-05
000130 bf 3f 9d 36 68 b5 1b 36 c4 87 a6 b7 7a bf 18 37
       4.6863856e-06 2.3202392e-06 -1.9851963e-05 9.104488e-06
000140 6f 21 3a 37 23 a4 2a b6 2d 29 74 b7 40 c1 cf 35
       1.1094248e-05 -2.5427514e-06 -1.455312e-05 1.5478945e-06
000150 0b c3 9e b6 91 34 c7 36 f7 fb 04 b8 c3 ca a0 b6
       -4.731473e-06 5.9367817e-06 -3.1705913e-05 -4.791976e-06
000160 3e 89 92 b5 5e 9e ae 37 2b 8f 14 36 ce ee a6 37
       -1.091779e-06 2.0816162e-05 2.2137053e-06 1.9899944e-05
000170 5f 45 c7 37 20 5a 96 37 7d 94 ed b5 3e 1a 24 38
       2.3754952e-05 1.7923361e-05 -1.7701092e-06 3.9125087e-05
000180 5f de ef 36 b7 ae 9b 35 a2 8f 08 b9 17 ba 98 36
       7.1486425e-06 1.1599249e-06 -0.00013023478 4.5516167e-06
000190 98 7b 14 36 11 fe 75 37 62 c0 3b b7 e2 f9 92 b7
       2.212566e-06 1.4662292e-05 -1.1190861e-05 -1.7520917e-05
0001a0 9e 90 71 37 9f 28 98 38 48 eb 7c b6 dc 2b 16 37
       1.4398391e-05 7.255491e-05 -3.7687878e-06 8.9509085e-06
0001b0 78 1f 77 b5 a1 2a 8d 36 97 8b f9 b9 10 73 fa 33
       -9.2060463e-07 4.20709e-06 -0.00047596983 1.1662462e-07
0001c0 d0 c7 1d 36 f8 d7 ef b6 be dd 37 b7 ed e4 a0 b7
       2.351113e-06 -7.147897e-06 -1.0959278e-05 -1.9180088e-05
0001d0 12 a6 f2 37 3e 3c 80 37 09 38 a5 35 f2 ac 77 b7
       2.892598e-05 1.5286842e-05 1.2309766e-06 -1.4762614e-05
0001e0 d2 f6 2c b7 65 c6 0a 37 bc a8 a8 36 8e dc 3a b6
       -1.0309466e-05 8.271633e-06 5.0264334e-06 -2.784454e-06
0001f0 b2 dd 89 b7 5b 62 3d b7 be c0 44 39 38 c1 eb 36
       -1.6434908e-05 -1.1288178e-05 0.00018763819 7.0260394e-06
000200 50 96 ab b7 4f 03 fa 37 d8 84 c7 b6 20 d8 33 b6
       -2.0454783e-05 2.9803863e-05 -5.946127e-06 -2.679888e-06
000210 6d 88 e0 39 86 bc 05 37 ec 69 bc b6 86 53 77 37
       0.00042826255 7.971312e-06 -5.6151675e-06 1.4741794e-05
000220 f4 31 ab 35 26 ac 72 b7 a0 d8 9f 34 21 f8 c0 b5
       1.2755031e-06 -1.44644055e-05 2.9773673e-07 -1.437733e-06
000230 6d ec 53 b8 d0 c5 30 b6 8a f1 79 37 fb 2a 84 34
       -5.052651e-05 -2.6341186e-06 1.4897794e-05 2.4618188e-07
000240 2c 73 e1 36 a4 f9 ad b7 82 59 bd b6 1a b3 1c 36
       6.7189303e-06 -2.0739455e-05 -5.643059e-06 2.3350062e-06
000250 2a 4d 01 38 1a 88 92 b8 a6 5e 9d b6 44 78 98 35
       3.082786e-05 -6.9871734e-05 -4.689983e-06 1.1359884e-06
000260 0c 09 94 36 e5 fc d6 36 0a 5e 06 36 e4 c4 b6 37
       4.411797e-06 6.407138e-06 2.0022294e-06 2.1787775e-05
000270 68 2b a7 b7 8e 98 1a 37 a1 0d f5 35 6b 02 2c b6
       -1.9928164e-05 9.214635e-06 1.8257889e-06 -2.5631405e-06
000280 1c bb c8 b6 72 e2 89 34 d9 f7 2c 34 c4 86 df 38
       -5.982247e-06 2.5683e-07 1.6108915e-07 0.00010658571
000290 26 e3 a8 36 90 f7 48 b4 aa 95 96 b6 64 d5 1b b7
       5.0332337e-06 -1.8716514e-07 -4.4877715e-06 -9.288404e-06
0002a0 e2 ac 8f b5 33 31 ff 36 74 99 16 35 65 59 c0 36
       -1.0704646e-06 7.6053198e-06 5.610266e-07 5.732453e-06
0002b0 f8 17 95 36 b4 51 c0 35 05 4f 86 b8 aa f8 cd 35
       4.4433364e-06 1.4328893e-06 -6.4043365e-05 1.5346061e-06
0002c0 ee 50 f6 36 c4 f1 25 ba 1e fb 5e b8 7d 98 09 38
       7.3407928e-06 -0.00063302764 -5.3162796e-05 3.280536e-05
0002d0 ea ad 0a b7 f2 8b 9c b7 20 76 88 b3 fa 4a 87 37
       -8.2659335e-06 -1.8661816e-05 -6.35448e-08 1.6128168e-05
0002e0 ec 8c 50 b5 0e 22 7c 35 9a 30 02 38 80 87 4c 37
       -7.7691107e-07 9.392687e-07 3.103968e-05 1.2190896e-05
0002f0 00 6c 27 b1 c4 d6 b9 b6 7c 5c d8 36 13 34 11 b6
       -2.436309e-09 -5.5384317e-06 6.4480682e-06 -2.1636995e-06
000300 54 03 2f 37 bc 10 91 36 c3 a0 ae 36 5b 55 5f b8
       1.0431588e-05 4.323285e-06 5.204319e-06 -5.3246837e-05
000310 cd a5 85 b6 16 79 5d 37 28 8d 75 35 58 cc 34 b8
       -3.9830106e-06 1.3200819e-05 9.147502e-07 -4.3105654e-05
000320 b8 5c ca b5 31 ef 22 b7 b7 5a eb b6 42 4e d6 38
       -1.5077158e-06 -9.7116435e-06 -7.0141064e-06 0.00010218892
000330 e0 2a 3c 36 65 6a 38 39 65 50 56 36 ca a6 dc 36
       2.803914e-06 0.00017587242 3.193528e-06 6.5759277e-06
000340 86 38 d8 b5 10 22 5b 36 42 69 20 b7 da ce b2 b6
       -1.6109705e-06 3.265337e-06 -9.56125e-06 -5.328894e-06
000350 be 84 be b9 de dc a4 b6 fe 10 3a 38 36 fb 9f b9
       -0.00036338525 -4.913293e-06 4.436168e-05 -0.0003051401
000360 2c 89 1f b5 c1 3f a9 b5 ca 63 dc b6 cc 5b 4c b5
       -5.9431727e-07 -1.2610036e-06 -6.568128e-06 -7.6129504e-07
000370 a0 07 60 37 db 2a 0a b7 28 3e 2a b7 cf 47 82 35
       1.3353216e-05 -8.235419e-06 -1.01472615e-05 9.706654e-07
000380 96 7f 86 b8 62 40 64 37 ea f4 0c b6 74 62 e3 34
       -6.413383e-05 1.3604849e-05 -2.1004184e-06 4.235368e-07
000390 c2 bd 89 b8 64 d1 08 b6 7b c8 fd 36 dc ef 9f b4
       -6.568014e-05 -2.038746e-06 7.5633266e-06 -2.9790579e-07
0003a0 0f 3d 88 37 c8 99 ff b5 63 b3 37 38 03 44 04 37
       1.6240896e-05 -1.9043737e-06 4.3797667e-05 7.883648e-06
0003b0 4c 86 3a b6 86 26 97 b7 54 c5 df 36 97 07 bf 39
       -2.779433e-06 -1.8018542e-05 6.66889e-06 0.00036436014
0003c0 0e a5 05 36 e6 f5 0b b7 d1 a2 1d b6 88 80 6e b4
       1.9914619e-06 -8.342298e-06 -2.3489595e-06 -2.2212237e-07
0003d0 89 53 a9 b5 74 41 94 35 65 fe 9a 36 f0 69 12 38
       -1.2615793e-06 1.1045909e-06 4.619173e-06 3.4907775e-05
0003e0 7c f2 a6 37 98 4f 91 b6 75 14 1b b7 de 2a a1 b5
       1.9901658e-05 -4.3306027e-06 -9.243483e-06 -1.2007911e-06
0003f0 09 91 f4 b9 20 e9 8f 34 81 d8 46 b6 9e de f6 36
       -0.00046647366 2.6805446e-07 -2.963032e-06 7.3572874e-06

net.1.weight f4 [256]
000000 ba c9 0a 3f ab c7 52 3f 76 91 92 3f 95 8a a7 3e
       0.5421406 0.8233592 1.1450641 0.32722917
000010 66 71 2d 3e 09 05 6c 3e 8a 2e 93 3e 20 ed b6 3f
       0.1693779 0.23048796 0.28746444 1.4291115
000020 fe 7b 2f 3f 3e ad 37 3f fb d1 db 3e 61 eb 2f 3f
       0.6854857 0.7174872 0.4293364 0.68718535
000030 f4 a3 03 3f 70 c9 ad 3e 39 a7 8f 3e 16 90 0b 3e
       0.5142205 0.33942747 0.28057268 0.13629183
000040 f2 91 b3 3e 05 6e b5 3e 24 fc 92 3d 00 b3 6c 3e
       0.35072285 0.354355 0.07176998 0.23115158
000050 2d 2f 55 3e f0 8b 70 3f d9 76 8a 3e a2 60 a6 3e
       0.20818777 0.9396353 0.270438 0.324956
000060 a4 4b 9f 3f 3e 76 d2 3e ec 92 40 3f 18 eb d7 3e
       1.2444959 0.41105837 0.75224185 0.4217155
000070 a8 0c 01 3f e4 54 89 3e 52 24 c7 3e 2b 87 01 3f
       0.50409937 0.2682258 0.38894898 0.50596875
000080 d2 e0 26 3e 79 6d b0 3e 27 6f 22 3f 95 ac 29 3f
       0.162967 0.3445852 0.63450855 0.66278964
000090 96 3e ff 3e 5a 61 56 3e 75 ad 98 3e 14 7b 16 3e
       0.49852437 0.20935574 0.29819837 0.14695388
0000a0 b6 d9 8e 3e b0 3a 5c 3f 11 13 03 3f 08 0b ce 3e
       0.27900475 0.8602705 0.5120097 0.4024279
0000b0 de a4 1e 3f af 21 9e 3e a8 f1 50 3f b3 ea 24 3f
       0.6197032 0.30885074 0.8161874 0.6442062
0000c0 f0 27 8e 3e 47 64 12 3f f0 03 99 3e 3c 0a 0a 3e
       0.27764845 0.5718426 0.29885817 0.13480467
0000d0 09 65 4d 3f cc b8 38 3f 79 e1 79 3f 78 5a cc 3e
       0.8023229 0.7215698 0.9760967 0.39912772
0000e0 7e 7a 23 3f a3 91 1b 3f c4 ff ea 3e 31 fb 7d 3e
       0.63858783 0.607691 0.4589826 0.24802853
0000f0 2f 75 a6 3e 1c f5 bf 3e 52 1a 44 3f ff 35 46 3e
       0.3251128 0.3749169 0.7660266 0.19356535
000100 84 54 f9 3e 7e cc 01 3e d5 fd 56 3f 29 56 36 3f
       0.48697293 0.12675664 0.83981067 0.7122522
000110 d9 3b 18 3f f6 4d 3c 3e ac 43 b2 3e cb 5a 6a 3e
       0.5946632 0.18389115 0.34817255 0.22886197
000120 f0 64 20 3f 67 bd 53 3e bb 0d 9e 3e 94 9c eb 3e
       0.6265402 0.2067772 0.3086985 0.46017897
000130 1b e5 0e 3e 03 bf 0b 3f c8 46 9d 3e cd 04 25 3f
       0.13954584 0.54588336 0.30718064 0.6446045
000140 18 35 f0 3e 02 7a 24 3e 3f f6 04 3f d9 fa ed 3e
       0.46915507 0.16062167 0.5193824 0.46480444
000150 8e 58 27 3f 7d 55 aa 3e 43 97 cd 3e 74 fc de 3e
       0.653695 0.33268347 0.40154466 0.4355198
000160 3e 03 43 3e c6 9b 07 3f b2 1b 1d 3e 57 50 83 3e
       0.19044206 0.52972066 0.15342596 0.25647232
000170 f0 c1 06 3f dc 6b 93 3e f6 20 c0 3e aa 69 2f 3f
       0.52639675 0.28793228 0.37525147 0.68520606
000180 e3 78 64 3f 17 d1 c7 3e c4 4e d1 3e 0e f5 91 3e
       0.8924696 0.3902671 0.40880406 0.28507274
000190 54 92 c2 3d 9c b8 23 3f 83 a0 53 3f 7d 86 02 3f
       0.09500566 0.63953567 0.82666796 0.5098646
0001a0 68 eb a0 3e ee 64 49 3f 91 4c 81 3e b2 76 11 3f
       0.314296 0.7866963 0.25253728 0.5682174
0001b0 b1 71 65 3e f7 32 1a 3e 43 d4 8a 3f de 77 fc 3e
       0.22406651 0.15058504 1.0846027 0.493102
0001c0 d7 13 36 3f 41 fe 4d 3e cd df 5c 3e a4 9d 34 3f
       0.71124023 0.20116521 0.21569748 0.7055304
0001d0 1a 28 0e 3f 99 00 d4 3e 69 a2 9c 3e f8 aa 1f 3f
       0.5552994 0.41406706 0.3059266 0.6237025
0001e0 b7 80 e0 3e 15 4d 05 3f f3 81 51 3e 03 8f 59 3e
       0.43848202 0.5207074 0.20459728 0.21245961
0001f0 19 3a 1f 3f 68 c9 b0 3e b1 30 b0 3f 2b bb 7c 3f
       0.62198025 0.3452866 1.376486 0.98723096
000200 0f 66 fb 3e 76 7e 97 3e 91 c3 e8 3e 87 6a 8d 3e
       0.49101302 0.2958867 0.45461705 0.27620336
000210 96 6d 6a 3f ac 1b 9c 3d 61 c4 03 3f dd 76 7e 3e
       0.91573465 0.076224655 0.51471525 0.2485003
000220 27 5f 58 3e 56 d8 09 3f 9f 9c 07 3e 59 c6 ab 3e
       0.21130048 0.5384573 0.1324334 0.33549765
000230 f6 0c 82 3f df d4 e8 3e d7 c4 1e 3f dd 92 16 3e
       1.0160205 0.45474908 0.62019104 0.14704461
000240 8f 18 e2 3e 26 94 1a 3e 05 b8 a6 3e 55 9f 13 3f
       0.44159362 0.15095577 0.3256227 0.57664996
000250 9a 4c 14 3e 1a b4 b4 3e 45 8a 27 3f 0a 8b 80 3e
       0.14482346 0.35293657 0.6544536 0.25106078
000260 8c 16 99 3d 24 9f 16 3f f1 2c 12 3e 04 f8 ea 3e
       0.074750036 0.5883658 0.14274956 0.45892346
000270 e2 a1 5f 3e 70 b4 5b 3e f6 05 b9 3e 7e 2c c5 3e
       0.21839097 0.2145555 0.3613736 0.38510507
000280 4b 16 83 3e b4 5d 94 3e 66 8a 6c 3e da a2 60 3f
       0.25602946 0.2897774 0.2309967 0.8774849
000290 42 c0 ad 3e 18 41 85 3d 16 6f e3 3e 9a 04 d0 3e
       0.33935744 0.06506556 0.4442069 0.4062851
0002a0 4a c3 f8 3d 5d 6b 31 3e 06 d5 68 3e 5a 08 b2 3e
       0.121466234 0.17326112 0.22737512 0.34771997
0002b0 b0 45 f5 3e e6 13 e7 3e 3c 1a 50 3f e9 44 95 3e
       0.4790473 0.4513237 0.8129003 0.29154137
0002c0 72 d3 fb 3e 10 b9 8c 3f 30 e2 4c 3f 1b 49 76 3e
       0.49184757 1.0993977 0.80032635 0.24051325
0002d0 01 15 2c 3f 7a c5 05 3f bc 73 d8 3e 40 6d 50 3f
       0.6721955 0.5225445 0.42275798 0.814167
0002e0 82 5b 33 3e a2 8c 86 3e 94 98 c4 3e 64 99 5b 3e
       0.17515376 0.2627917 0.38397658 0.21445233
0002f0 e4 93 0b 3e c0 fc da 3e e8 cf d1 3d 7b b7 5f 3e
       0.13630635 0.42770958 0.10244733 0.21847336
000300 d5 31 c4 3e f2 a1 0b 3f 48 f5 6e 3e 18 31 3e 3f
       0.3831927 0.54543984 0.23335755 0.7429366
000310 ee 9b 8a 3e 8e f8 4f 3e 90 f2 aa 3d 94 0b f8 3e
       0.2707209 0.2030966 0.083470464 0.48446333
000320 e9 5c 18 3f 5b 7e 21 3f 2e 21 86 3e 30 22 85 3f
       0.5951677 0.6308343 0.2619719 1.0401058
000330 a0 71 74 3e a0 3c 1f 3f 7f 05 11 3f ba 28 9e 3e
       0.2387147 0.6220188 0.5664901 0.30890447
000340 02 db 7b 3e ee 28 93 3e 4d 72 06 3f 3a c3 f9 3e
       0.24595264 0.28742164 0.5251816 0.4878176
000350 46 18 49 3f 24 29 a2 3e 5a 0e 31 3f 9c aa 6b 3f
       0.78552663 0.31672013 0.69162524 0.92057204
000360 e7 73 08 3e 83 b3 3a 3e d1 eb 69 3e f0 66 78 3e
       0.13325463 0.18232541 0.22843863 0.24258018
000370 72 eb 27 3f d0 40 ea 3e 04 c8 a8 3e 2d e2 27 3e
       0.65593636 0.45752573 0.329651 0.16394873
000380 8d bf fa 3e 00 91 e3 3e aa 25 0a 3f 00 f7 c8 3e
       0.48974267 0.44446564 0.5396372 0.39250946
000390 19 17 54 3f 01 63 c9 3e b2 6b a9 3e 83 39 c0 3e
       0.82847744 0.39333346 0.33089978 0.37543878
0003a0 c5 cf 18 3f 56 84 0f 3e 7d d2 a1 3e c7 2b 14 3e
       0.5969203 0.14015326 0.31605902 0.14469825
0003b0 e5 21 8e 3d 7e 87 ba 3e bf 87 b8 3e 56 81 98 3f
       0.069400586 0.36431497 0.36041066 1.191447
0003c0 57 50 5a 3e b5 b2 4c 3f 99 5d 34 3f 9c d4 53 3d
       0.2131971 0.79960185 0.7045532 0.051716432
0003d0 33 84 af 3e 71 41 2b 3f b9 6e a2 3d 95 8e 14 3f
       0.34280547 0.6689673 0.07931275 0.5803006
0003e0 8f e1 3c 3f 77 ff 0b 3e 26 a5 3e 3f 24 d6 e8 3d
       0.73781675 0.13671671 0.74470747 0.11368969
0003f0 2f 3d 4a 3f f4 2c 8a 3d 5d f7 cd 3d aa ed 0c 3f
       0.7899961 0.067468554 0.100569464 0.55050147

net.1.bias f4 [256]
000000 76 39 2f be 2d f3 29 bd e4 a2 52 be 52 8d 82 be
       -0.17111763 -0.041491676 -0.2056995 -0.25498444
000010 cb b7 2e be b5 59 3e be 87 f1 f6 be bc 0e 23 bf
       -0.17062299 -0.18588908 -0.48231146 -0.6369436
000020 b0 f4 34 be 50 78 3c bf ae 20 9a bd 02 9e a0 be
       -0.17671466 -0.7362108 -0.075257644 -0.3137055
000030 e0 33 8f bd 28 0e 6f be 58 65 4e be d0 d4 0b be
       -0.06992316 -0.23345244 -0.20155847 -0.136554
000040 29 98 cc bd 80 33 64 be 64 61 f9 bc b1 70 3a be
       -0.0998996 -0.2228527 -0.030441947 -0.18207051
000050 da 31 0e be 1c e9 ed be 4f a8 92 bd 30 d7 91 bc
       -0.13886204 -0.4646691 -0.071610086 -0.017802805
000060 dc b3 fd be 9e 98 99 be 4f a0 6b be e0 d1 1a bd
       -0.49551284 -0.2999925 -0.23010372 -0.03779781
000070 1b 9d 0c be 09 49 95 bd fc b8 fb bd a9 8e ab be
       -0.13731806 -0.07289321 -0.12291142 -0.3350728
000080 90 fa ef 3b 8c a8 48 be 6b 35 99 be 7d 9d 60 be
       0.0073235705 -0.19595546 -0.29923567 -0.21935077
000090 c7 31 49 be b7 89 90 be c1 7d 80 be 25 06 08 be
       -0.19647895 -0.28230068 -0.25095943 -0.13283594
0000a0 60 bd 37 be 2b d8 d4 be 77 d3 a9 be bc ea fe bc
       -0.17943335 -0.41571173 -0.33169147 -0.03111779
0000b0 04 d6 26 be f5 b1 01 be 84 40 b6 be f7 87 f2 bd
       -0.16292578 -0.12665541 -0.35596097 -0.118423395
0000c0 ad 99 54 be 40 ba a3 be 77 32 69 be 15 77 1c be
       -0.20761748 -0.31978035 -0.22773157 -0.15279801
0000d0 5e 58 26 bd 37 a0 72 be 17 4e 47 bd 13 22 6f bd
       -0.040611617 -0.2369393 -0.048658457 -0.058382105
0000e0 61 e1 29 be 64 d7 97 be dc 07 51 be 1d 8f 55 be
       -0.16589881 -0.29656518 -0.20413154 -0.20855375
0000f0 c0 71 8d be 73 db 0c be 54 29 6a bd 6c a0 91 be
       -0.27625847 -0.13755588 -0.05716832 -0.28442705
000100 38 82 39 be 66 aa 38 be dd 14 64 bd cb 42 6c be
       -0.18116081 -0.18033752 -0.05568396 -0.23072354
000110 62 1e 27 be e3 f3 41 be bc 66 5d be 6d d6 98 be
       -0.16320184 -0.18940692 -0.21621221 -0.29851094
000120 eb b1 4f be ab a5 4f be 87 bb 33 be 20 af d8 bd
       -0.20282714 -0.20278041 -0.17552005 -0.105802774
000130 52 62 76 bc 55 29 47 be 32 8f 80 be c3 a6 45 be
       -0.01503809 -0.1944936 -0.2510925 -0.19301896
000140 51 3c 9a be fa 66 f1 bd 47 60 49 bd 25 f3 bf bd
       -0.30124143 -0.11787219 -0.049164083 -0.09372548
000150 40 2b 45 be a5 d9 a9 be 10 aa 8e be 2c d2 a1 bd
       -0.1925478 -0.33173862 -0.27864122 -0.07901415
000160 56 f0 53 be 44 e6 25 be b9 17 01 be 3d b0 cb bd
       -0.2069715 -0.1620112 -0.12606706 -0.09945724
000170 02 d7 1c be 6f c8 4c be 36 cc 3d be 14 60 8b be
       -0.15316394 -0.19998334 -0.18534932 -0.2722174
000180 87 f9 92 be be fc 92 be 29 50 b0 be bd c7 35 be
       -0.28706 -0.28708452 -0.34436157 -0.17751975
000190 7b 22 7f bd 4a 28 88 be 83 5e 94 be 39 2d e9 bd
       -0.062288743 -0.26593238 -0.28978357 -0.11385579
0001a0 6e 65 35 be cd e7 59 be 39 46 b8 be 60 bf 19 be
       -0.17714474 -0.21279831 -0.35991076 -0.1501441
0001b0 90 5b 42 be d2 c5 cb bd 36 9b dd be 3e 3a 17 be
       -0.18980241 -0.099498406 -0.4328248 -0.14768311
0001c0 17 20 51 be 9a 13 cf 3c b6 0f c5 3c 78 4a 8c be
       -0.20422398 0.025277901 0.024055343 -0.27400565
0001d0 ee 92 90 be 17 07 d0 be b8 5b 4b be 08 58 2d be
       -0.28237098 -0.4063041 -0.19859207 -0.16928113
0001e0 b8 bc 65 bd 08 f2 07 be 77 e2 c9 bd 38 d0 37 be
       -0.05608818 -0.13275921 -0.09857648 -0.17950523
0001f0 e5 b6 2f be f1 7b 0c be fd aa 40 be fa 58 cb be
       -0.17159612 -0.13719155 -0.18815227 -0.3971632
000200 bd 72 5b be 07 52 ce be 8d fb bd bd d9 93 fd bd
       -0.21430488 -0.40296957 -0.09276495 -0.12381715
000210 6a cd be be 31 36 6c bc 06 86 83 be 12 a7 f6 3c
       -0.37266093 -0.014417217 -0.2568819 0.030108962
000220 ca 6f 2a be 47 17 ca bd b9 e4 a0 bd e7 87 22 bd
       -0.16644207 -0.09867721 -0.078561254 -0.039680388
000230 b8 79 cd be 19 c4 64 be af 81 ee bd d1 b3 00 be
       -0.40131927 -0.2234043 -0.11645829 -0.12568595
000240 2b 21 d5 bd f7 e0 84 bd a3 5e 8f be 13 5f 46 be
       -0.10406717 -0.06488221 -0.2800189 -0.19372205
000250 3b 25 78 bc 6a 67 d1 be 20 87 ce bd 55 12 3b be
       -0.015145595 -0.4089921 -0.10084367 -0.18268712
000260 a4 4a fa ba 89 c1 20 be 8f 13 34 be 20 78 93 be
       -0.0019095731 -0.15698828 -0.17585586 -0.28802586
000270 6d 22 18 bc dd 34 49 be 1d 68 3e be 39 d6 cd be
       -0.0092855515 -0.19649072 -0.18594404 -0.402025
000280 e8 c6 85 be 8a fa 3b be 44 f4 4f be 2d 12 a4 be
       -0.26128316 -0.18357292 -0.20308024 -0.32045117
000290 3a 1f 90 be e5 81 f9 3b 6a 29 9d be 4c bb 86 be
       -0.28148824 0.0076143616 -0.3069566 -0.2631477
0002a0 62 55 6d be f9 8c 1c be f1 76 42 be 22 ba c0 be
       -0.23177102 -0.15288152 -0.18990685 -0.37642008
0002b0 30 6f be be 54 15 ab be fd 74 45 be 83 18 12 be
       -0.37194204 -0.3341471 -0.19282909 -0.14267163
0002c0 32 a6 33 be 88 57 e8 be 64 3e 29 be 0d 4f 83 3c
       -0.17543867 -0.4537928 -0.16527706 0.016028905
0002d0 f7 77 2f be 37 1f 72 be 43 ad ed bd f8 bb 4c be
       -0.17135607 -0.2364472 -0.11605313 -0.1999358
0002e0 bc 92 f6 bd cb 7c d0 be 67 5f 5b be e7 75 35 bc
       -0.12039706 -0.4072021 -0.21423112 -0.011075473
0002f0 ce ea f9 bd 9f 01 37 be 85 4f 91 bd 10 a5 2d be
       -0.122029886 -0.17871712 -0.07095245 -0.16957498
000300 04 38 72 be 99 b3 82 be a5 4f 0b 3d 07 df 51 be
       -0.23654181 -0.25527647 0.0340115 -0.20495234
000310 a6 ef e5 3c 25 ae 8a bd ae 0a 2c 3b 66 ec 09 be
       0.028068375 -0.06771497 0.0026251483 -0.13469085
000320 68 d8 e8 bd f2 f6 2c be bd e4 8f bd f9 4a e0 be
       -0.11369401 -0.16891077 -0.0702605 -0.438072
000330 24 eb 84 be 5a 80 7e be b6 f0 81 be 3b b5 d9 be
       -0.25960648 -0.2485365 -0.2537896 -0.4252108
000340 27 8a f4 bd 3f 19 ce bd cb 79 52 be 11 85 b7 bd
       -0.11940413 -0.10063409 -0.20554273 -0.08960927
000350 a2 f0 78 be 5b a3 8d be 7a b0 38 bf 1d 0d be be
       -0.24310544 -0.27663693 -0.7214428 -0.3711938
000360 d9 7c 31 be e4 95 3c be 4c 44 17 3d 8d 1e 0f be
       -0.17332782 -0.18416554 0.036930367 -0.13976498
000370 76 09 e7 bd 87 62 45 be f0 c9 7e be a9 dd 16 be
       -0.112811014 -0.19275866 -0.2488172 -0.14732994
000380 1d 03 ed be 6b f4 34 be 0f 43 99 be 89 dc 8e be
       -0.46291438 -0.17671363 -0.29933974 -0.2790263
000390 a8 b3 19 be aa ed 34 be d6 53 1e bd 64 6e 4f be
       -0.1500994 -0.17668787 -0.03865417 -0.20256954
0003a0 55 8d 23 be 5a 4c 1f be 2c 75 25 be 42 fa d6 bd
       -0.15971883 -0.1555647 -0.16157979 -0.10496952
0003b0 4c 5b b1 3b 80 0b 62 bd be 47 03 be 81 b2 02 bf
       0.0054124948 -0.05518675 -0.12820336 -0.51053625
0003c0 ac 7b 70 be fe 62 6f be 44 6d 24 be 23 7c f8 bd
       -0.23484677 -0.23377606 -0.16057307 -0.12133052
0003d0 13 8c 48 be fb aa 54 be 20 1c 31 bc 61 1e 7d be
       -0.19584684 -0.20768349 -0.010809928 -0.2471862
0003e0 e8 a6 06 be cc 4f 72 bd be f7 4a be 68 85 96 bd
       -0.13149607 -0.05915813 -0.19821069 -0.07349664
0003f0 4f 8b 7f be 58 70 83 bc b6 54 a5 bd 26 f7 08 bf
       -0.24955486 -0.01604478 -0.08072798 -0.5350212

net.1.running_mean f4 [256]
000000 e6 7f fe bd 43 0b 0c 3e 37 a8 07 3d 6e 18 84 bd
       -0.124267384 0.13676171 0.033119407 -0.06449972
000010 03 5b 93 3d b3 94 ff 3d c1 c2 8d 3d 23 34 8a 3d
       0.071950935 0.12479534 0.06921912 0.067482255
000020 07 1c 12 3c 9f c8 8b be 8d 7d 3c bd 3a 8f 0b bd
       0.008917815 -0.273015 -0.046018172 -0.03407214
000030 1f 2d 06 3e 64 6d 99 3b 84 ec a9 3b ba 7d 13 3c
       0.1310315 0.00468223 0.0051856656 0.0090021435
000040 e4 0a 84 bd 6f cc 7a bd 2e e8 2c 3b 09 82 09 be
       -0.0644739 -0.06123012 0.0026383507 -0.1342851
000050 62 7b 8e bd f2 dc ad 3d e8 f5 34 3e d2 0a 75 bd
       -0.06957127 0.084894076 0.17671931 -0.059824772
000060 65 ee 61 3d b7 4b 0f 3e 62 65 24 be f8 fa c2 3d
       0.05515899 0.13993727 -0.160543 0.09520525
000070 24 3c 97 3d 71 03 66 3c a8 9e eb 3c cb 3a 90 bc
       0.07384518 0.014038906 0.028762177 -0.01760616
000080 60 6c 0b 3c c3 0b 36 3e ce d1 80 bd d9 f0 2a be
       0.008509725 0.17777924 -0.06290017 -0.16693439
000090 44 f1 ac 3d 71 7a 86 bd 1c 72 81 bd b1 2d ca bc
       0.08444455 -0.065663226 -0.06320593 -0.02467999
0000a0 76 bc 86 3d de 39 66 be d6 fe e6 bd e1 17 ec bd
       0.06578915 -0.22483012 -0.11279075 -0.11527992
0000b0 87 cc 82 3d 65 b5 f0 bc 89 17 9c bd 94 28 45 3d
       0.06386667 -0.02938337 -0.076216765 0.0481344
0000c0 a6 4d da bc 52 68 92 3d 7d 25 1c bd 2b a3 89 bd
       -0.026648354 0.07148804 -0.03812169 -0.06720575
0000d0 d8 cd 21 3d 32 3b ad 3d 15 3a 2c bd 21 e7 5b bd
       0.03950295 0.08458556 -0.04204758 -0.05368722
0000e0 e0 d6 04 be 08 31 86 3c ea 64 cd 3c 7a 57 84 bd
       -0.12972593 0.016380802 0.025072534 -0.06461997
0000f0 84 e3 8a 3c 61 94 90 3c 3d 42 27 bb a4 90 9d 3d
       0.016954191 0.017648878 -0.0025521659 0.07693604
000100 61 2a c0 3c 7a 86 ec bb 95 4b 8f 3c 7d 86 0c be
       0.023457708 -0.0072181793 0.017492095 -0.13723178
000110 30 de 89 bd 6f a1 d7 bd e5 9c 82 3d 11 11 7d bd
       -0.06731832 -0.10528838 0.063775815 -0.061783854
000120 b7 f0 93 3b 31 f7 5d bd f5 f1 31 3c 34 20 33 3d
       0.0045147794 -0.05419082 0.01086091 0.043731883
000130 26 bb 7c 3d ab 1b a9 bd 98 ef fd 3d b2 d3 2c 3e
       0.061701916 -0.0825723 0.123992145 0.1687763
000140 bb ac e0 3c d4 94 03 bd f4 f0 15 be 30 f2 b3 bd
       0.027426114 -0.032124355 -0.14642698 -0.08786428
000150 c7 ec 6a bd da 1b 9a 3d 26 ba 91 3c 41 b7 3a be
       -0.057354715 0.075248435 0.017788958 -0.18233968
000160 39 86 e0 bd 31 5d 4b 3d 33 08 b6 bb a5 c6 9e 3d
       -0.10963101 0.04964942 -0.0055551766 0.07752732
000170 da 78 17 bd 23 11 65 3c b4 9e 36 3d a0 62 01 be
       -0.036980487 0.0139811365 0.044584945 -0.12635279
000180 db fa 77 bd ec 54 20 3d f1 a0 00 be 91 57 75 bd
       -0.06054197 0.039143488 -0.12561394 -0.059897963
000190 80 b1 65 3d d7 00 85 bd a3 a8 1c 3c 35 27 c0 bd
       0.05607748 -0.06494301 0.0095616905 -0.09382478
0001a0 3a 92 1d 3e 86 5f a7 3d b4 bd af 3d b4 18 42 bd
       0.15387812 0.081725165 0.08581105 -0.04738684
0001b0 89 ad ae bd 3c 6f 0f bd 9a 86 79 bd 59 13 0e be
       -0.08529193 -0.03501819 -0.06091938 -0.13874568
0001c0 47 de e0 3d 7f bc eb bd 2a 46 fd bb b5 5e 11 be
       0.10979896 -0.11510562 -0.0077293115 -0.14196284
0001d0 26 ef ad 3c b1 43 2f bc 86 07 44 3e 6b f2 a0 3d
       0.021232199 -0.010697291 0.19143495 0.078587376
0001e0 62 5c 0e 3d c3 a9 1d bd 19 e8 cc bd ee ab 0d 3e
       0.034756072 -0.038491976 -0.100052066 0.13835117
0001f0 8a 52 d3 bb 7b d4 1e bb c8 e1 c4 bc c5 17 53 bc
       -0.0064490484 -0.0024235535 -0.024033442 -0.012884085
000200 f9 a6 d1 bb 2b d3 0c bb 9d 5e be bc b2 c2 8c 3b
       -0.0063980785 -0.002148817 -0.023238475 0.0042956704
000210 df 4f 02 3e 27 77 37 bd b2 1d c6 bb 5b bf c4 bd
       0.12725781 -0.044791367 -0.0060460204 -0.09606811
000220 80 9e 20 3c 0a ea 89 3d f6 bc fd 3b 25 a0 01 be
       0.009803414 0.067340925 0.007743473 -0.12658747
000230 57 3e 02 be f0 7a 99 3d d2 01 52 bd 73 42 07 3b
       -0.12719093 0.074941516 -0.051271267 0.0020638972
000240 a2 a8 97 bd 05 e1 c6 37 8b 7e 57 bd 4a ca 0d 3e
       -0.07405211 2.3708222e-05 -0.052610915 0.13846698
000250 de 79 1a be bb 51 0f 3d a7 c6 62 3a 35 69 00 bd
       -0.15085551 0.034990054 0.00086508173 -0.031350333
000260 d4 ae 12 bc 02 7e 40 3d 8d 26 07 bd fe a5 09 bd
       -0.008952815 0.04699517 -0.03299575 -0.033605568
000270 51 68 c6 bd ae 08 d1 bd 84 27 e9 bc 7e 8f b9 3d
       -0.096878655 -0.10206734 -0.028461225 0.09060572
000280 34 28 b2 3d f3 79 f0 bc b6 22 7c 3b e7 31 f9 3c
       0.086990744 -0.029355025 0.0038472838 0.030419303
000290 ae 3b c8 bc 1c a0 ce 3d 05 a6 ef bc ee 25 3d bc
       -0.02444252 0.10089132 -0.029253969 -0.011544688
0002a0 d0 38 01 3d 09 1b df bd 12 a6 1f be 4d fb 2c bc
       0.03154832 -0.108938284 -0.15590695 -0.010557962
0002b0 60 d8 9e 3c e5 ae 97 bb e5 7c f4 3c be 6f a0 3c
       0.019390285 -0.0046290033 0.02984471 0.019584533
0002c0 01 2f 99 bd 65 f3 8b bd 91 69 8a bd 19 94 1f bd
       -0.074796684 -0.06833533 -0.067584164 -0.038959596
0002d0 43 62 d0 39 d1 b0 85 bd 0c 7e 3d bc 5b 4d 1c be
       0.00039746062 -0.06527866 -0.011565696 -0.15263884
0002e0 37 f2 32 3c a5 f6 db 3c 84 da a9 bd 8c 46 99 bc
       0.010922006 0.026851008 -0.08293632 -0.018710397
0002f0 ac f5 15 bd 40 88 37 3c fc c8 ed 3b 49 05 98 bb
       -0.036611244 0.011201918 0.007256625 -0.004639302
000300 53 74 a7 3d d8 3a 08 3d 1c 9b 9a bd 33 60 e4 bd
       0.08176484 0.033259243 -0.07549116 -0.11151161
000310 7d 36 25 3c 98 56 3a 3e c5 50 4e 3d 02 d6 0e 3c
       0.010083792 0.18197095 0.050369997 0.008718016
000320 8a 2c bd bb 00 b5 24 3d 24 8f 82 bd 58 7d ef bd
       -0.0057731317 0.040211678 -0.06374958 -0.11693829
000330 16 7e 1a be 3d 0f 5c 3d ed 94 64 3c a2 35 b2 3d
       -0.1508716 0.05372547 0.013951522 0.08701636
000340 32 a9 3d 3d bf bc 3d bd a3 f8 7f bd 69 fd 4f 3c
       0.046303935 -0.04632258 -0.062492978 0.012694695
000350 2c 3f 25 be 3a 93 a5 3d 01 b7 f1 bd 1f 4d 41 3a
       -0.1613738 0.08084722 -0.11802483 0.00073738577
000360 27 16 a1 bc 68 c9 a7 3d de 10 63 bd 02 d9 94 3c
       -0.019663883 0.08192712 -0.055436008 0.018169884
000370 bf 2d 80 bd d4 07 a9 3d 05 34 e0 3d d7 3f e8 bd
       -0.062587254 0.08253446 0.10947422 -0.113403015
000380 2e 28 45 be de 23 12 bd 2c 5a 4b 3c c4 dc b8 3d
       -0.19253609 -0.035678737 0.012411635 0.09026483
000390 22 e5 9a 3d 5e 65 42 3d 41 d0 14 be 82 4c 18 3d
       0.07563235 0.047459953 -0.14532568 0.03718234
0003a0 e1 c7 b0 bc 8b 22 0c be 8a 40 a1 bd 81 88 fd 3d
       -0.021579685 -0.13685052 -0.07873638 0.12379552
0003b0 f4 04 84 3c 8e 11 ac bd b7 ec 50 3c 94 da f5 bc
       0.016115643 -0.08401786 0.01275175 -0.030011453
0003c0 5f d2 3e bb fd c4 06 be f8 6e d2 bd 29 98 c5 bc
       -0.002911709 -0.13161083 -0.10275072 -0.024120407
0003d0 88 23 86 bd e7 03 38 3e fc 7e 21 3d e7 db d1 3c
       -0.06549746 0.17970239 0.039427742 0.025617553
0003e0 ac 10 21 3d bc 6c 10 bd 51 26 41 bc 36 77 d3 3a
       0.03932254 -0.035259947 -0.0117889205 0.001613355
0003f0 65 02 0d 3e a3 f1 45 bd 6b 61 11 bd cd 56 36 3e
       0.13770445 -0.048326146 -0.035493296 0.1780655

net.1.running_var f4 [256]
000000 4b a7 d3 3f 56 37 55 3e 61 b2 4e 3e 17 8b d9 3d
       1.6535429 0.2082189 0.20185234 0.106222324
000010 58 b4 50 3e c6 33 e6 3e a0 31 4c 3e e8 34 55 3e
       0.20381296 0.44961375 0.19940805 0.20820963
000020 d3 7f 2c 40 35 ac 3b 3e 93 70 24 40 59 b9 a8 3f
       2.6953018 0.1832741 2.569371 1.3181564
000030 a8 46 44 40 0f 6d 85 3e ec ae 57 3f 8a 8f 98 3e
       3.0668125 0.26059768 0.84251285 0.29797012
000040 e3 e0 5a 3f 64 be 37 3f 7e ba 86 3e 19 0e 9b 3e
       0.854994 0.7177489 0.26314157 0.30284193
000050 10 9a 24 3e d7 04 dd 3d 6b ff 56 3e ee b5 9b 3f
       0.16074395 0.10791939 0.20995872 1.2164896
000060 74 63 59 3e bd ce e9 3e 53 2d 1f 40 90 1d d0 3f
       0.21229345 0.4566554 2.4871414 1.6259022
000070 af a5 aa 3f 49 f3 a1 3d 4a 2d b4 3f 20 a7 3e 3e
       1.3331813 0.07907731 1.4076321 0.1861844
000080 91 45 48 3e ba b0 b8 3e 16 04 1c 3e 5e 27 32 40
       0.19557787 0.36072332 0.15235934 2.7836528
000090 ad 02 0d 40 fa 2d 8c 3e fa b1 84 3e a8 43 5b 3e
       2.2032883 0.27378827 0.25917035 0.21412528
0000a0 a5 64 ec 3e ed 54 0f 3f 86 cd 7d 3e f6 05 21 40
       0.46170536 0.5598896 0.24785432 2.5159888
0000b0 b5 4d 37 40 9b 8c 2b 3f 2c cf a1 3e 27 61 4b 40
       2.8641179 0.6701142 0.31603372 3.1778047
0000c0 fd f4 53 3e 3d cd 85 3e 61 3a d8 3d 1b 45 ba 3e
       0.20698924 0.26133147 0.1055801 0.36380848
0000d0 82 51 78 3e 07 97 00 40 e1 d2 5f 3e 19 e0 a4 3f
       0.24249843 2.009218 0.21857788 1.2880889
0000e0 64 a9 3c 40 ec 49 dd 3e 9d 23 a2 3f d5 58 dc 3e
       2.9478388 0.4322046 1.2667118 0.43036523
0000f0 61 c9 3f 3f c5 f1 45 3f c4 ff b5 3b 4f 03 7b 3e
       0.74916655 0.77322036 0.0055541713 0.24512981
000100 73 ee 10 40 ff 29 88 3e 16 3e 56 3e ac 0a 48 40
       2.2645538 0.2659454 0.20922121 3.1256514
000110 68 d0 ef 3f 14 bf ad 3e 91 05 a7 3e 25 93 2b 3f
       1.8735476 0.33934844 0.32621434 0.670214
000120 99 50 b0 3f fd 28 0f 3e 42 14 0c 3f 45 7a 07 40
       1.3774596 0.1398048 0.5471841 2.1168377
000130 d6 fe 46 3e 15 81 19 40 89 dd f1 3e 15 a8 b0 3f
       0.1943315 2.3985035 0.4723933 1.3801295
000140 45 5b 1d 3e 96 ee 1a 3e 7d b4 1b 40 5c ab 97 3e
       0.15366848 0.15130076 2.4328911 0.29622924
000150 4b a8 e1 3f fa ce 0e 3f df 0d a8 3e fb b2 f9 3f
       1.7629484 0.5578457 0.32823083 1.9507746
000160 b2 08 d1 3e 64 ef 08 3f a1 1d 07 3f 2b 38 33 3f
       0.40826946 0.5349028 0.52779585 0.7000758
000170 d1 55 0d 40 7b 5c e6 3e 80 76 87 3f 0b 8c 05 40
       2.2083628 0.44992432 1.0583038 2.0866725
000180 06 46 26 40 b8 51 6c 3f 8d 74 3d 3e 56 cb fa 3e
       2.598024 0.9231219 0.18501492 0.48983258
000190 fa 7d 64 3e c4 25 9f 3f ae 6e 14 40 ad 45 0b 40
       0.22313681 1.24334 2.3192554 2.1761277
0001a0 21 da 86 3e fe d8 15 3c d7 10 88 3e 5b a3 1f 40
       0.26338294 0.009145973 0.26575348 2.4943454
0001b0 f8 09 67 3e e9 ce 1e 3e 55 80 29 3e c8 5e 15 3f
       0.22562397 0.15508617 0.16552861 0.5834775
0001c0 5a ab cc 3c fe 69 a2 3f ef 6b ab 3f f8 e8 25 40
       0.02498405 1.2688596 1.3392314 2.5923443
0001d0 83 74 a1 3e b0 de 35 3d ee 25 2c 3e 30 8d be 3f
       0.31534204 0.044401824 0.16811344 1.4886837
0001e0 da cb 12 40 24 dd 4f 40 93 37 bd 3e eb e7 14 3e
       2.293692 3.2478724 0.36956462 0.14541595
0001f0 9c b8 25 40 a6 47 5a 3f 6c 69 39 3e c2 4f af 3f
       2.5893927 0.85265577 0.18106622 1.3696215
000200 bf 7d 9a 3f 4d d8 54 3e 03 59 7f 3f 68 80 2e 3f
       1.2069625 0.20785637 0.99745196 0.6816468
000210 c4 b3 64 3e 44 d7 3d 3e 68 ad d8 3f 68 9d b4 3f
       0.223342 0.18539149 1.6927919 1.4110537
000220 a9 28 b1 3e 31 44 18 40 dd e3 83 3d 95 65 ca 3f
       0.34601334 2.379162 0.06439946 1.581225
000230 c5 df 84 3f 88 c0 d0 3f 84 8b 48 40 42 a0 58 3e
       1.0380789 1.6308756 3.1335154 0.21154884
000240 0d eb 1d 40 e3 3c 69 3e 6e 6d 96 3e b1 3a 99 3e
       2.4674714 0.22777133 0.29380363 0.2992759
000250 d4 92 04 3e bf 76 0f 3e 93 08 3a 40 a5 2e da 3e
       0.12946635 0.14010142 2.9067733 0.42613712
000260 32 46 66 3f 55 32 23 40 fe 38 99 3e f5 98 c0 3e
       0.8995086 2.549947 0.29926294 0.37616697
000270 2f 46 8d 3e f5 2a 87 3e 62 7b 17 3f 83 d6 8c 3e
       0.27592608 0.2639996 0.5917264 0.2750741
000280 0f 74 6a 3e 7c 32 4b 3f 80 75 fa 3e 8e 22 b5 3e
       0.22895835 0.7937391 0.4891777 0.35377926
000290 c4 ad e6 3e d3 c6 11 3f a8 ad d1 3e b1 00 b3 3e
       0.45054448 0.56944007 0.40952802 0.34961465
0002a0 62 ee a0 3e d4 63 53 3e be fe 69 3e 80 ff 31 3e
       0.31431872 0.2064355 0.22851083 0.17382622
0002b0 82 ca af 3e e5 86 d5 3e 02 c6 63 40 4f df 6c 3f
       0.3433419 0.4170448 3.5589604 0.9252824
0002c0 a9 cd 05 3f 33 e7 23 3e c2 80 44 40 8c 66 9a 3f
       0.5226694 0.16006164 3.0703588 1.2062545
0002d0 b5 30 15 40 04 a0 e3 3d 4a 10 c4 3f 84 1e 54 40
       2.3310978 0.11114505 1.5317471 3.3143625
0002e0 08 bf bb 3e cc 35 68 3e 70 bb 25 3e 27 13 2b 3f
       0.36669183 0.22676772 0.16184783 0.668261
0002f0 4a 1d aa 3e 91 94 d9 3f 37 a4 bf 3e bf c8 e8 3e
       0.3322547 1.6998464 0.37429973 0.45465657
000300 b5 e5 e4 3e 4d c9 bc 3e c7 97 d2 3f 67 55 76 40
       0.44706503 0.3687233 1.6452569 3.8489625
000310 80 0d ba 3f c8 2d 3d 3e 1f db 56 3f e9 80 3b 40
       1.453537 0.18474495 0.839281 2.929743
000320 7d 44 36 40 d3 d5 16 40 76 7b 72 3f e4 74 7d 3e
       2.8479302 2.3568008 0.94719636 0.24751621
000330 88 be ae 3e 75 89 92 3d 20 60 84 3f 53 ef af 3e
       0.3412974 0.07155124 1.0341835 0.34362277
000340 22 0a 92 3e 45 6c 97 3f 92 00 0c 40 88 b1 01 40
       0.28523356 1.1829916 2.1875348 2.0264606
000350 ac 5e 59 3e 79 13 db 3e e6 10 66 3e f7 24 8c 3e
       0.2122752 0.42788294 0.22467384 0.27371952
000360 1a dd 70 3e 86 f4 8e 3e dc 11 bb 3f 43 88 d5 3e
       0.23521844 0.27920932 1.4614825 0.41705522
000370 81 0f 32 40 01 23 96 3f 7b ac fb 3d 27 2f a9 3e
       2.7821963 1.1729432 0.122887574 0.33043787
000380 26 98 66 3e 98 2a 5e 3f 70 41 9a 3e ec e0 9b 3f
       0.22518978 0.8678374 0.3012805 1.2178016
000390 9d 98 d3 3d 7b b3 8b 3f 56 57 d3 3f 3e 73 84 3f
       0.10331843 1.0914148 1.6511028 1.0347669
0003a0 ac dc 4d 40 88 bd 64 3e b7 98 25 3e 53 94 cd 3e
       3.2165937 0.22337925 0.16171537 0.40152225
0003b0 87 47 ee 3e 4e 9d 50 3e 03 c0 d1 3f e7 7f 41 3e
       0.46538946 0.20372507 1.6386722 0.18896447
0003c0 eb d4 92 3e e3 e0 86 3f f1 df 01 40 e6 03 45 3e
       0.2867807 1.053738 2.0292933 0.19239768
0003d0 b3 2f 0d 3f a8 7a 3c 40 1b dd fa 3e 65 63 7a 3e
       0.5515091 2.9449863 0.48996815 0.24451979
0003e0 a9 d5 84 40 e2 02 00 3e fb 12 70 40 f7 57 37 3e
       4.1510816 0.125011 3.7511585 0.1790465
0003f0 70 c6 04 3d 41 7d 54 3f 87 78 24 3e 8d 0f 51 3d
       0.032415807 0.8300362 0.16061603 0.05104022

net.4.weight f4 [128, 256]
000000 93 04 0f bd 70 37 cc bc b5 14 b8 bc 46 cc 82 bd
       -0.03491647 -0.024928778 -0.022470811 -0.06386618
000010 77 0f da bc 3e 40 c4 3c 74 ca 95 bd 6d 77 d9 bd
       -0.026618702 0.023956414 -0.073140055 -0.10618482
000020 05 1c 0b bd 16 65 a0 be f6 43 aa bd 14 38 2f bb
       -0.03396227 -0.31327122 -0.08313744 -0.0026736306
000030 dd 71 53 bd cb 58 7c bc 6c 3e de bb b0 41 eb b9
       -0.05162226 -0.015402029 -0.0067823436 -0.00044871634
000040 84 c9 17 bc 1f 6d 64 3d 4d ce 8a 3c cd dd 41 3d
       -0.009264354 0.05576813 0.016944075 0.047330666
000050 e4 21 f3 3c c2 4f 0f bd 97 f1 ae 3c c6 1e e8 bd
       0.029679246 -0.034988172 0.021355433 -0.113339946
000060 97 89 62 3d 32 39 6c 3d e9 c5 c1 bc 8e 5d d6 bd
       0.055306997 0.057671733 -0.023653941 -0.10467063
000070 06 6d 1e bd b6 e6 45 3d b4 34 20 bd ca de 5b 3c
       -0.03867819 0.048315726 -0.03911276 0.013419816
000080 7d c2 16 3d 40 98 fb 3a c9 49 35 bc 0e 07 4c bd
       0.036806572 0.0019195154 -0.011064955 -0.049811415
000090 ed 12 2e bd da 67 68 3c f8 ef 0e 3d ed 35 44 ba
       -0.042498518 0.014184916 0.03489682 -0.0007484842
0000a0 29 9e 01 3c 64 f5 6f bd 40 61 7f 3c 5a a3 bf bd
       0.0079112435 -0.058583632 0.015587151 -0.09357329
0000b0 a1 53 2d bd 3c ab 2c bd 16 fc fd bd 99 b9 66 bd
       -0.042316083 -0.04215549 -0.12401597 -0.056329343
0000c0 82 0f cd 3b c3 42 41 3d aa 92 cb 3b 10 a1 e1 3c
       0.006257952 0.04718281 0.006212552 0.02754262
0000d0 f4 68 98 bb 89 05 31 bc e0 ce a3 3c 49 8c 47 be
       -0.0046511833 -0.010804542 0.019996107 -0.19487108
0000e0 6f 9a 54 bd 6e 46 03 bd 8f 52 8c bd e1 78 4a 3c
       -0.05190509 -0.03204959 -0.06851684 0.012357921
0000f0 d5 d8 77 bc fa d3 9e bd fa 31 1d bd f3 c0 23 bd
       -0.01512738 -0.07755275 -0.03837774 -0.039978933
000100 d3 d6 68 bd d5 49 2a bd 6d 2b 7c 3c fb 34 6c bd
       -0.056845497 -0.041574318 0.015391213 -0.057667714
000110 6b a8 25 bc 5d 29 95 bc 4a 09 47 bc cb 72 98 bc
       -0.010110955 -0.0182082 -0.012148211 -0.018609425
000120 e6 97 a2 3c 01 5a 70 bd 4c bb 68 3d 64 89 86 bd
       0.019847821 -0.058679584 0.056819245 -0.06569174
000130 d6 7b f7 3c 69 a8 8b bd 7c 4d ae 3c a4 4c 8b bc
       0.030210417 -0.06819231 0.021277182 -0.017004319
000140 40 d3 81 bd 6f 93 74 3c 39 7a ba bd 9f 59 ed bd
       -0.06339121 0.014927729 -0.09105343 -0.115893595
000150 35 3d 0b bd 77 25 6a bc b5 3e cd 3c 24 76 05 be
       -0.03399392 -0.014291159 0.025054315 -0.13033348
000160 bb 0d cc bc 8e d1 8e 3c 13 04 6c bd ff 73 fd 3b
       -0.024908891 0.017433908 -0.057621073 0.007734775
000170 1a 89 65 bc aa 6d 62 3d 5c 08 ca bc 96 a1 06 bd
       -0.014009738 0.055280365 -0.02466219 -0.032868944
000180 c7 10 83 bd 88 2f 2e bd a7 fe 31 be 8d cb 73 bd
       -0.063996844 -0.042525798 -0.17382298 -0.059520293
000190 80 41 8f bd 21 d7 ae bd 71 a5 13 bd a1 16 9b bd
       -0.06994915 -0.08537126 -0.03604645 -0.075726755
0001a0 87 63 62 bc 60 49 fc bd 75 d5 02 bd 29 95 f9 bb
       -0.0138176745 -0.12318683 -0.03194185 -0.007616658
0001b0 17 ac 52 bc 01 c5 e5 3c 89 45 20 3d c6 58 e0 3a
       -0.012858412 0.02804804 0.039128814 0.00171163
0001c0 f2 f5 4a bd 91 65 d0 bd af 65 6c bd bb 6c 63 bd
       -0.049550958 -0.10175622 -0.05771416 -0.055523615
0001d0 a7 73 d9 3c 02 a1 21 be 88 86 f6 b8 de 61 94 bd
       0.026544405 -0.15784076 -0.000117552525 -0.07245229
0001e0 fd 8e 90 bd 74 98 52 bd 40 a7 1d bc 57 9c 04 3d
       -0.07058523 -0.051414922 -0.009622395 0.03237566
0001f0 28 7f 60 3d a8 6a 82 3b f0 db ad bc fa ab 02 be
       0.054808766 0.0039799996 -0.021223038 -0.12760916
000200 46 d2 ac bd 53 ef 98 bd 43 b7 1e be 6f fb 6f bd
       -0.08438544 -0.074675225 -0.15499596 -0.058589395
000210 eb f7 81 3d 6f 67 13 3d 33 7b a6 3c b0 51 dd bd
       0.06346115 0.035987314 0.020322418 -0.10806596
000220 28 a3 05 3d dc 0c 18 be 66 99 68 3b f5 df 01 be
       0.0326263 -0.14848655 0.0035491823 -0.12683089
000230 8f ae 0c be dc 37 03 bd ee 69 ef bc 52 ec 2c 3c
       -0.13738464 -0.032035694 -0.029225316 0.01055439
000240 45 fb 8d bd 9f 2b 16 bd 87 35 29 be 7b 75 5b 3c
       -0.069326915 -0.036662694 -0.16524325 0.013394709
000250 ed f3 1c 3d 1a ec e3 bd fd 5e be bd 36 2c bd bb
       0.038318563 -0.11129017 -0.09295461 -0.0057730926
000260 88 4e 06 3c 6e 3c 5d bd 0d 44 e8 bc 48 5f 09 3c
       0.008197434 -0.05401271 -0.028352762 0.008384533
000270 03 70 3f 3d 03 f2 2d 3d 3d 78 0f 3d 3c a2 16 3c
       0.046737682 0.04246713 0.035026778 0.009193953
000280 57 5a c2 3c 4b 1d 31 3c 3f a6 2b bd 01 ec 29 be
       0.023724718 0.010810207 -0.04190659 -0.16593935
000290 9a 63 34 3d 1b 82 67 bd 84 17 52 3d 93 d5 b4 3b
       0.0440403 -0.056520563 0.051291957 0.005518624
0002a0 c0 ec 6c bd f5 5a d9 bc 82 aa 75 3d 99 37 03 3d
       -0.05784297 -0.02653263 0.059977062 0.032035444
0002b0 b0 35 7b 3a f4 99 a9 3c a2 64 99 bd 17 a6 40 bd
       0.000958289 0.020703293 -0.07489897 -0.047033396
0002c0 63 aa 81 3c 09 75 b7 3d 68 76 75 bd 0f e9 04 be
       0.015828317 0.089578696 -0.059927374 -0.1297953
0002d0 2e d5 a8 3c 6d 54 61 3d 07 df 42 bd 48 66 bd bc
       0.020609464 0.055012155 -0.047575977 -0.02312006
0002e0 88 b5 24 3d 47 8b b0 3c e0 ce 88 3c ac 04 b8 bd
       0.040212184 0.021550788 0.016700208 -0.08985266
0002f0 02 d1 41 3c e7 a1 c1 bc fd 5c 9d bc 31 c1 a7 bc
       0.0118296165 -0.023636771 -0.01920938 -0.020477863
000300 70 56 d6 bc 5e 18 aa bc 06 e2 ad bd c1 0c 23 bd
       -0.026164263 -0.020763572 -0.08490376 -0.039807085
000310 f2 c8 db bd 79 31 e4 3b 58 38 1a bc 4d 35 e1 3c
       -0.10731687 0.0069639054 -0.009412847 0.027491236
000320 c4 2d 07 be ca 79 ca bd 74 d5 0a bd 87 d0 03 3d
       -0.13201052 -0.09886511 -0.03389497 0.03218129
000330 df 04 41 bd 77 8a c3 bc 0f 1a 2d ba f1 76 fe 3b
       -0.047123786 -0.023869736 -0.00066033093 0.0077656438
000340 a1 3f 36 3d 6c 9f cf bc ec 92 b3 3a d6 4f 9d bd
       0.044494275 -0.025344573 0.0013700402 -0.07681243
000350 1c 6a 33 bd 9b cc 30 bc b1 50 b1 be 14 db c7 3c
       -0.043802366 -0.010790969 -0.34631875 0.024396457
000360 f5 a9 6b bd f0 c3 7c 3a 27 3c a8 bd 31 49 ce bc
       -0.05753513 0.0009642234 -0.08214598 -0.025181385
000370 85 1e c2 bd 0a 3d 92 3b a8 75 b5 bd f3 c4 07 3b
       -0.094784774 0.004462843 -0.08860332 0.0020716756
000380 45 ef 98 be ec e4 43 3c 40 d7 a4 3c f6 5a 1c bd
       -0.29870048 0.011956435 0.02012217 -0.038172685
000390 50 1f 81 3c 04 e7 31 bd 01 3b c1 bd 7d c4 5f bd
       0.015762001 -0.043433204 -0.09435082 -0.054630745
0003a0 e7 95 3d bd 47 82 3a 3c a3 1c 65 3d 04 4a 23 bc
       -0.046285536 0.0113836 0.055935513 -0.009966377
0003b0 e0 8c 18 bc 53 02 19 bd 14 7b b8 bd b5 1e d1 bd
       -0.009310931 -0.037355732 -0.0900785 -0.10210935
0003c0 a3 ef be bc f7 ad 12 be bd c4 15 bd 81 40 44 3c
       -0.023307627 -0.14324175 -0.036564577 0.01197827
0003d0 9a 2a f1 bc 9c eb 98 bd 7e 0a 2b 3d 4c 28 10 bb
       -0.02943926 -0.07466814 0.041758053 -0.0021996675
0003e0 93 aa 8c 3c 9e 01 3b bd 14 06 50 bd 99 2d d8 bb
       0.01717118 -0.04565584 -0.050787047 -0.0065972325
0003f0 ef a9 13 bd 78 89 b6 3b 3d a8 98 bb 86 c6 63 be
       -0.036050733 0.005570587 -0.0046587274 -0.222437
