neural_network_classifier/expansion_mlp.pt (torch, 180574 bytes, 13 tensors)

net.0.weight f4 [256, 35]
0	0xbc0c80ea	-0.008575657
1	0x3dc74c76	0.09731381
2	0xbe859cdd	-0.2609624
3	0xbbf1f318	-0.0073837154
4	0xbd4292b9	-0.047503207
5	0xbe1bcfd2	-0.15215996
6	0xbe2cc543	-0.16872124
7	0xbd426406	-0.04745867
8	0x3dc4759f	0.09592747
9	0x3c267a60	0.010161012
10	0x3daf2571	0.08552063
11	0xbd25dae5	-0.040491957
12	0x3c1ff059	0.009761893
13	0xbe1f4d65	-0.15556867
14	0x3d83b8f0	0.064317584
15	0x3d6abce0	0.05730903
16	0xbdff6f0c	-0.124723524
17	0x3d84a30c	0.06476411
18	0xbe767270	-0.24067092
19	0x3e03cab5	0.12870295
20	0xb6840b1e	-3.9352008e-06
21	0xb685f260	-3.991925e-06
22	0xbb0eadc1	-0.0021771046
23	0x3d13d011	0.0360871
24	0x3ccb6140	0.024826646
25	0x3bd38f62	0.0064563015
26	0xbd70ce81	-0.058790687
27	0x3d580089	0.052734885
28	0x3cca070b	0.024661561
29	0xbc47c91d	-0.012193945
30	0x3cfb342a	0.030664522
31	0x3d0bcef2	0.034132905
32	0xbd2b31f6	-0.041795693
33	0xbd2d5e0a	-0.04232601
34	0x3d2f9bd5	0.042873222
35	0xbe92454d	-0.28568497
36	0xbe84e90b	-0.25959048
37	0xbe2a38f1	-0.16623284
38	0xbeb4a895	-0.35284868
39	0xbdbf9eae	-0.093564376
40	0xbdaffc3e	-0.08593033
41	0x3d3f874d	0.046759892
42	0xbcd1753b	-0.025568595
43	0x3c28f7a9	0.010312953
44	0xbba705b6	-0.0050971163
45	0x3ccbd692	0.024882589
46	0x3c8df66e	0.01732942
47	0xbd9c7865	-0.07640151
48	0xbd7955f4	-0.060872987
49	0xbeae066b	-0.33989272
50	0xbd355a87	-0.044275787
51	0x3bca5b13	0.0061754077
52	0xbba174d1	-0.0049272557
53	0x3d021a16	0.03176316
54	0xbd2e90f0	-0.042618692
55	0x389b9383	7.418452e-05
56	0x389b8dfe	7.417424e-05
57	0xbd6029c7	-0.054727342
58	0xbe685aa7	-0.22690831
59	0x3e2cea63	0.16886286
60	0xbcce8dc0	-0.025214076
61	0x3d37f4e5	0.044911284
62	0xbdace77f	-0.08442592
63	0x3d427483	0.047474395
64	0x3bb64b5c	0.0055631828
65	0x3d19f728	0.037589222
66	0xbc8f5760	-0.017497718
67	0x3a622fb4	0.0008628324
68	0xbad7e367	-0.001647097
69	0x3ad7ee22	0.0016474167
70	0xbe8f76a7	-0.28020212
71	0xbe4f8686	-0.2026616
72	0xbe272b0b	-0.16325013
73	0xbe905450	-0.28189325
74	0xbe8495e1	-0.258956
75	0x3ef98b7a	0.48739225
76	0xbc953bd2	-0.018217001
77	0x3ca11f44	0.019668229
78	0xbd37cb78	-0.044871777
79	0xbbdb9a96	-0.0067017777
80	0xbb8f4ede	-0.0043734154
81	0xbd88085b	-0.06642219
82	0x3aa0db1e	0.0012272333
83	0x3c1e1596	0.009648701
84	0xbee15f2c	-0.44017923
85	0xbd0e64a1	-0.034763936
86	0x3af89b16	0.0018967118
87	0xbd1bd5b3	-0.038045596
88	0x3e149aa6	0.14512119
89	0x3da2eddd	0.07955525
90	0xb6764560	-3.6697238e-06
91	0xb66dcef0	-3.5436206e-06
92	0xbda49d0c	-0.08037767
93	0x3e0511b7	0.12995039
94	0x3c71e7ca	0.0147647355
95	0x3c949481	0.018137218
96	0xbc8195cd	-0.0158185
97	0x3d4c36fb	0.04985712
98	0xbe30d2d4	-0.17267925
99	0x3d1011cc	0.035173222
100	0xbcedebd5	-0.029043118
101	0x3ca6d2c4	0.020364173
102	0x3d6d33a9	0.057910595
103	0xbc42b8cb	-0.011884878
104	0x3c9b467f	0.018954514
105	0xbc4326f8	-0.011911146
106	0xbca2a775	-0.01985524
107	0xbd30746e	-0.043079786
108	0xbdc21268	-0.09476167
109	0x3d8ec115	0.06970421
110	0xbe7c807d	-0.2465839
111	0x3ba21672	0.0049465233
112	0x3af82629	0.0018932271
113	0xba437299	-0.0007455736
114	0xbc82e55a	-0.015978504
115	0xbbd1b216	-0.0063994033
116	0xbc3cacc6	-0.011515802
117	0x3c09fc52	0.008421974
118	0x39db2f13	0.00041806008
119	0xbf98fec7	-1.1952752
120	0x3aebbb88	0.0017984966
121	0xbbd78f01	-0.0065783267
122	0x3bf6d986	0.007533255
123	0xbbf87e1d	-0.0075833932
124	0x3c91a31b	0.01777797
125	0x391db367	0.0001503952
126	0x391db413	0.0001503977
127	0x3daf4f7a	0.08560081
128	0x3d82cf16	0.06387155
129	0x3db5265d	0.08845208
130	0x3b17a832	0.0023141024
131	0x3c12be42	0.008956494
132	0xbc35f8a9	-0.0111066485
133	0xbc998f87	-0.018745197
134	0xbcb9d86a	-0.022686202
135	0xbbbf3605	-0.005835297
136	0xbc0993a6	-0.008397019
137	0xbb817ad4	-0.00395141
138	0xbdec76a2	-0.11546065
139	0x3dec29f8	0.115314424
140	0xbd9c081c	-0.07618734
141	0xbd2bfd0d	-0.041989375
142	0xbd294780	-0.041327953
143	0x3d16139c	0.036639795
144	0xbd814883	-0.06312659
145	0xbe3ad6a9	-0.18245949
146	0x3d99139c	0.07474443
147	0xbd374e4d	-0.044752408
148	0x3d008057	0.031372394
149	0xbc8958e9	-0.016766028
150	0xbc332047	-0.0109329885
151	0xbc844bdc	-0.016149454
152	0x3c658ab9	0.014010125
153	0xbd32090f	-0.04346567
154	0x3ef521cc	0.47877347
155	0xbbda9173	-0.006670171
156	0xbd4cd28f	-0.05000549
157	0xbc9c9c81	-0.019117596
158	0xbd0d9362	-0.034564383
159	0x3e502ad5	0.20328839
160	0xb7ce7aec	-2.4614354e-05
161	0xb7cded14	-2.4548302e-05
162	0x3db06f57	0.086149864
163	0x3ea62885	0.3245279
164	0xbee5d08a	-0.44885665
165	0xbd15fa6e	-0.03661578
166	0x3c8a5b52	0.016889248
167	0x3d6001e7	0.054689314
168	0x3d0340bc	0.032044157
169	0xbc4b5c81	-0.012412191
170	0xbce85351	-0.02836004
171	0xbcf59415	-0.029977838
172	0xbbe11c57	-0.0068698335
173	0xbcbcef04	-0.02306319
174	0x3cdd5ee5	0.027022788
175	0xbe5f6598	-0.21816099
176	0xbdd159b0	-0.10222185
177	0xbe1ec18f	-0.15503524
178	0xbd87b6f2	-0.06626691
179	0x3d222551	0.03958637
180	0xbe194666	-0.14968261
181	0x3cd69eea	0.026198823
182	0xbd0101bf	-0.031495806
183	0x3bb33343	0.0054687574
184	0xba827693	-0.0009953551
185	0xbc0d8ffc	-0.008640286
186	0x3c379209	0.011204251
187	0xbb7f8bb3	-0.003899318
188	0xbc419b7f	-0.011816858
189	0x3ee6fc1a	0.45114213
190	0xbc7a889a	-0.015291357
191	0xbd054de9	-0.032545004
192	0x3d385a23	0.045007836
193	0x3c0a2438	0.008431487
194	0xbe935b15	-0.28780428
195	0xb7a530ee	-1.9692317e-05
196	0xb7a557b3	-1.971037e-05
197	0x3dee5fa4	0.11639336
198	0x3d64a071	0.05581707
199	0xbe29e45b	-0.16591017
200	0x3d5c36b4	0.053763106
201	0x3dbdce59	0.09267873
202	0x3c577d6f	0.013152464
203	0x3dcbeb2f	0.09956967
204	0x3d475914	0.048668936
205	0x3d374e1e	0.044752233
206	0x3d5a0170	0.053224027
207	0x3c970308	0.018434063
208	0x3c6ec1a6	0.014572537
209	0xbc5754c9	-0.013142773
210	0xbe9ad538	-0.30240798
211	0xbe8c1357	-0.27358505
212	0x3c78001b	0.015136744
213	0xbe07c618	-0.1325916
214	0xbe00e497	-0.125872
215	0x3db2d45b	0.0873191
216	0x3d21f667	0.03954163
217	0x3c666c7a	0.014063949
218	0xbc8fb9c6	-0.017544638
219	0xbc9e2cf7	-0.01930855
220	0xbca3a459	-0.019975828
221	0xbb9c8cec	-0.0047775414
222	0x3caf7e71	0.021422597
223	0xbd3bba8e	-0.04583221
224	0x3edc055b	0.42972836
225	0xbcd31a51	-0.025769385
226	0x3a932a3c	0.0011227797
227	0x3de2cc7f	0.11074161
228	0xbd37e465	-0.04489555
229	0xbe8c6ad2	-0.27425247
230	0xb7efbf28	-2.8580034e-05
231	0xb7efb1c9	-2.8573808e-05
232	0x3e3a0280	0.18165016
233	0xbdcb199d	-0.09916995
234	0xbe05e50e	-0.13075659
235	0x3d502621	0.050817613
236	0xbc04bc80	-0.0081015825
237	0x3b1f0e15	0.0024269868
238	0x3c94d512	0.018168006
239	0x3d36d3e5	0.044635672
240	0xbd5ec486	-0.054386638
241	0xbdbcc0ed	-0.09216485
242	0xbc90332e	-0.01760253
243	0xbce60111	-0.02807668
244	0x3ce6b87a	0.028164137
245	0xbe5bdeda	-0.2147173
246	0xbe5eebde	-0.21769664
247	0xbd7cb158	-0.061692566
248	0xbde81c85	-0.11333565
249	0xbd84957c	-0.064738244
250	0xbe462326	-0.19349346
251	0x3c3d35df	0.011548488
252	0x3d4397cb	0.047752183
253	0xbd2f433d	-0.042788733
254	0x3d82620a	0.06366356
255	0x3d8d6db4	0.0690569

net.0.bias f4 [256]
0	0x3396f454	7.029362e-08
1	0x37aeeb9f	2.0852136e-05
2	0xb75edf0a	-1.32841615e-05
3	0x37980e90	1.8126593e-05
4	0xb6783c44	-3.698996e-06
5	0xb6f03895	-7.1591444e-06
6	0xb6ab8f54	-5.1128827e-06
7	0x372b68c8	1.02167905e-05
8	0x37264013	9.9092895e-06
9	0x37737dcc	1.4513218e-05
10	0x38109db4	3.4479148e-05
11	0x3572a058	9.0385356e-07
12	0x37bae5b3	2.227989e-05
13	0x356412f2	8.496419e-07
14	0xb7644f2b	-1.3608292e-05
15	0xb43caee9	-1.7572496e-07
16	0x38a3ae9e	7.804971e-05
17	0xb6f69232	-7.3483907e-06
18	0xb8dc7d43	-0.00010513749
19	0x37af9a1d	2.093339e-05
20	0xb6c39434	-5.828706e-06
21	0x36405948	2.8662198e-06
22	0xb723a9f6	-9.755129e-06
23	0xb715a990	-8.920571e-06
24	0x0175dc10	4.515728e-38
25	0x36ac3b6d	5.1329175e-06
26	0xb578b650	-9.26525e-07
27	0xb708a029	-8.143522e-06
28	0x008b0810	1.2768026e-38
29	0xb6b9c874	-5.5367655e-06
30	0x37641f46	1.359714e-05
31	0x370ceb9c	8.399507e-06
32	0x36bb7da7	5.587662e-06
33	0x396597b8	0.00021895661
34	0xb74d44a4	-1.2234934e-05
35	0xb83c2532	-4.4857334e-05
36	0xb9b57122	-0.000346073
37	0x38c93c4f	9.59566e-05
38	0x3927248d	0.00015939977
39	0x37639d85	1.356693e-05
40	0xb8e02a1e	-0.00010688997
41	0x37377f81	1.0937337e-05
42	0x36ec1c16	7.0366177e-06
43	0xb6b51cf8	-5.3975928e-06
44	0xb6c82f33	-5.965959e-06
45	0x369c8a5e	4.6652704e-06
46	0xb7609a43	-1.3387357e-05
47	0x3849f834	4.815329e-05
48	0x361e276a	2.3566777e-06
49	0x35e69b58	1.7181546e-06
50	0x36b182d6	5.2902424e-06
51	0x3616d670	2.247656e-06
52	0x372d1c87	1.0318246e-05
53	0x365efd06	3.3227857e-06
54	0x37741d72	1.4550389e-05
55	0xb817f3d7	-3.62283e-05
56	0x3660b84e	3.348588e-06
57	0x351cbf36	5.839278e-07
58	0xb4fb0c70	-4.6761443e-07
59	0xb81c52e3	-3.7270493e-05
60	0xb82c48be	-4.1075742e-05
61	0x38a9ab15	8.0904145e-05
62	0xb63aaef0	-2.7817987e-06
63	0x38b55fe6	8.648615e-05
64	0x370d5b69	8.425538e-06
65	0x37b88c4b	2.1999838e-05
66	0xb44a0bf6	-1.8817067e-07
67	0xb640b380	-2.8714712e-06
68	0xb76582fe	-1.3679963e-05
69	0x372f799e	1.0459129e-05
70	0x3711b356	8.684428e-06
71	0xb5b38038	-1.3373856e-06
72	0xb78e06de	-1.6930917e-05
73	0xb7d2843c	-2.5095527e-05
74	0x37a909ac	2.0150874e-05
75	0xb8382860	-4.390662e-05
76	0x35f7d31c	1.8464375e-06
77	0xb98a59e3	-0.00026388382
78	0x377b53e7	1.4980301e-05
79	0x383a4798	4.4412533e-05
80	0xb81a0336	-3.671945e-05
81	0x39adc69c	0.00033145107
82	0x36dc85fa	6.572108e-06
83	0x37102192	8.590885e-06
84	0x378cf191	1.6801789e-05
85	0x359bbaac	1.1602729e-06
86	0xb703b2d0	-7.8498415e-06
87	0xb4e73c60	-4.3071032e-07
88	0x372c1111	1.02559725e-05
89	0x367f8262	3.8073854e-06
90	0x380a910a	3.3036842e-05
91	0x373f7770	1.1412296e-05
92	0x36fe59df	7.5802523e-06
93	0x331413c0	3.4476898e-08
94	0x34e4812c	4.2562294e-07
95	0x38af869c	8.369723e-05
96	0x3812b995	3.498195e-05
97	0x36d476f8	6.331942e-06
98	0xb6e5c212	-6.8473246e-06
99	0xb6ff6fee	-7.6126225e-06
100	0xb4578a70	-2.0073799e-07
101	0x371a2fa3	9.190207e-06
102	0x35449690	7.3234787e-07
103	0xb7504881	-1.2414647e-05
104	0xb6b3f5a5	-5.3632125e-06
105	0x382b2651	4.0805262e-05
106	0x370309da	7.810502e-06
107	0x373738e0	1.0920892e-05
108	0xb631ff8e	-2.6523808e-06
109	0xb57f8002	-9.518118e-07
110	0x35ada73d	1.2938177e-06
111	0xb6f69d1e	-7.349662e-06
112	0x34ffe62c	4.7664923e-07
113	0xb703aa36	-7.847839e-06
114	0x36daa9bb	6.5166655e-06
115	0xb79cb77e	-1.8682094e-05
116	0xb65f30a0	-3.3257893e-06
117	0xb704063e	-7.8692665e-06
118	0x38a101f6	7.6774435e-05
119	0xb647bf3e	-2.9764628e-06
120	0xb5715484	-8.990248e-07
121	0xb76658d8	-1.3729754e-05
122	0x366fad79	3.571475e-06
123	0x390f729b	0.00013680237
124	0x3880903e	6.130383e-05
125	0xb921e1a2	-0.00015438211
126	0x375ce262	1.3165731e-05
127	0xb5574f50	-8.0209156e-07
128	0xb7172ab7	-9.010247e-06
129	0x359853c9	1.1349267e-06
130	0x387e08d1	6.056653e-05
131	0x37b14469	2.11319e-05
132	0xb954c8ff	-0.00020292772
133	0xb5cda234	-1.5320898e-06
134	0x36841f7c	3.937572e-06
135	0xb5f75bda	-1.8429666e-06
136	0xb794718e	-1.7695853e-05
137	0xb537b5e8	-6.843752e-07
138	0x383b40f2	4.464476e-05
139	0xb636941a	-2.720632e-06
140	0xb705ce7d	-7.975495e-06
141	0x371c6c7d	9.323584e-06
142	0x3603084e	1.9525355e-06
143	0xb5dca6de	-1.6439842e-06
144	0xb7059311	-7.961659e-06
145	0xb673d2fc	-3.633263e-06
146	0x37402db4	1.1454733e-05
147	0x36b1312c	5.2807354e-06
148	0x358a8208	1.0319645e-06
149	0x35ae4488	1.2983955e-06
150	0xb7bdd326	-2.262888e-05
151	0x3851e5b6	5.0043418e-05
152	0xb6ca85ea	-6.0356588e-06
153	0x3617cf3f	2.2621387e-06
154	0xb6d612c9	-6.379884e-06
155	0x38870732	6.438642e-05
156	0xb835802f	-4.3273143e-05
157	0xb858c60d	-5.1682862e-05
158	0x370d7377	8.431139e-06
159	0x35a91bbf	1.2599556e-06
160	0xb6fb4638	-7.4885575e-06
161	0x39a2abe6	0.00031027122
162	0x362378ea	2.4359274e-06
163	0xb751c8c4	-1.2504115e-05
164	0xb7400f5a	-1.1447666e-05
165	0xb505923b	-4.9759154e-07
166	0xb61065c6	-2.1516912e-06
167	0xb6002f08	-1.9100862e-06
168	0xb6b6a944	-5.443728e-06
169	0xb835446a	-4.321748e-05
170	0x367b3ee2	3.7438517e-06
171	0x36b2e6d6	5.331686e-06
172	0x372e0a91	1.0373668e-05
173	0x360c1837	2.087572e-06
174	0x363646ac	2.716125e-06
175	0x338ff37a	6.7032445e-08
176	0xb7125d68	-8.724026e-06
177	0x367f66c0	3.805777e-06
178	0x381f8702	3.803429e-05
179	0xb72f25f0	-1.0439646e-05
180	0x362dabf0	2.587909e-06
181	0xb77e0f74	-1.5143178e-05
182	0xb7558f51	-1.2729158e-05
183	0xb8a395af	-7.8003264e-05
184	0xb64cbc0a	-3.0507822e-06
185	0x34a47164	3.0629883e-07
186	0xb77b28f6	-1.4970303e-05
187	0xb6f5bfa5	-7.3238793e-06
188	0xb7722a32	-1.4434148e-05
189	0xb5cb4fbc	-1.5147884e-06
190	0x36b8ed86	5.5112787e-06
191	0xb6f49246	-7.288795e-06
192	0x37ab81cb	2.0445228e-05
193	0xb8e85836	-0.00011079053
194	0xb6177800	-2.2570603e-06
195	0x38f3853a	0.00011611958
196	0x374e1515	1.2283465e-05
197	0xb5304bcb	-6.56754e-07
198	0x36166eb9	2.241619e-06
199	0xb62f7c4a	-2.6149378e-06
200	0x3743a327	1.1660893e-05
201	0x3846726c	4.7313442e-05
202	0xb6e8ef8e	-6.9420266e-06
203	0xb7c36023	-2.3290579e-05
204	0x38c55725	9.409924e-05
205	0xb5da59ba	-1.626838e-06
206	0xb6ad08e6	-5.1568377e-06
207	0x3517bbd0	5.6525187e-07
208	0xb66e0dc6	-3.547278e-06
209	0xb710cf03	-8.6312675e-06
210	0x399a0e93	0.00029384028
211	0x35f9a2e6	1.8599355e-06
212	0xb8099df0	-3.2810436e-05
213	0xb62cede6	-2.5768472e-06
214	0x3706c9f4	8.034043e-06
215	0x351ba560	5.798265e-07
216	0xb706b67a	-8.0295085e-06
217	0x370034f9	7.641728e-06
218	0x37f68473	2.9387162e-05
219	0x3704152c	7.872743e-06
220	0x37a60f56	1.9795883e-05
221	0x364f1ea0	3.086323e-06
222	0xb76afad8	-1.4005891e-05
223	0xb894b4de	-7.090879e-05
224	0xb743ad30	-1.1663229e-05
225	0xb7e4de7f	-2.7283326e-05
226	0x3824f2e0	3.9326842e-05
227	0x35b76873	1.3664961e-06
228	0xb6967567	-4.484016e-06
229	0xb326bda0	-3.882235e-08
230	0x36bff237	5.720441e-06
231	0xb664cda3	-3.4094344e-06
232	0x3691a9c2	4.341099e-06
233	0x367399f2	3.629943e-06
234	0x36a42742	4.892151e-06
235	0x37d72ef6	2.5651865e-05
236	0xb6cda328	-6.12847e-06
237	0xb6bbeb64	-5.6004374e-06
238	0xb5a928d8	-1.2603368e-06
239	0xb89bb7a8	-7.4251846e-05
240	0x37b2e311	2.132499e-05
241	0xb9076adf	-0.00012914416
242	0x36b7ec2c	5.481319e-06
243	0xb8e9cda2	-0.00011148608
244	0x3792705a	1.7456874e-05
245	0xb596c77e	-1.1233931e-06
246	0x36acc2d0	5.1486786e-06
247	0xb6f16c32	-7.1949553e-06
248	0xb51fe208	-5.9561035e-07
249	0xb6c66785	-5.912911e-06
250	0x350d74dc	5.2696646e-07
251	0xb6b82bbd	-5.488719e-06
252	0xb49a2050	-2.8708246e-07
253	0xb9b4c48b	-0.0003447871
254	0x373be6f1	1.1199839e-05
255	0xb8c47c17	-9.369122e-05

net.1.weight f4 [256]
0	0x3de5d753	0.112227105
1	0x3ed54008	0.41650414
2	0x3f2c432e	0.6729001
3	0x3f269330	0.6506834
4	0x3e48712e	0.19574425
5	0x3ec32434	0.38113558
6	0x3ef3bac0	0.47603416
7	0x3ebaaab2	0.36458355
8	0x3f251296	0.64481485
9	0x3e9878fa	0.29779798
10	0x3f0f531c	0.5598619
11	0x3e5b4369	0.21412434
12	0x3ea8df48	0.3298285
13	0x3eda123b	0.42592034
14	0x3eb5e0db	0.35523114
15	0x3e011b81	0.12608148
16	0x3f732f03	0.9499361
17	0x3eb9a8da	0.36261636
18	0x3f2cb2bd	0.6746023
19	0x3e8c83bd	0.27444258
20	0x3e810346	0.2519781
21	0x3ee2414c	0.44190443
22	0x3f14c1e4	0.58108354
23	0x3e7600bd	0.24023719
24	0x3385f877	6.2384906e-08
25	0x3e157843	0.14596657
26	0x3e8e4192	0.277844
27	0x3f0c0ae0	0.54704094
28	0x3ce77528	0.028254107
29	0x3e67b9dc	0.22629493
30	0x3f0b6c5e	0.5446223
31	0x3f131d40	0.57466507
32	0x3e8643a7	0.2622349
33	0x3f564a63	0.83707255
34	0x3e53a543	0.20668511
35	0x3f27f2de	0.6560496
36	0x3f9db7f1	1.232176
37	0x3f59247d	0.848213
38	0x3f6ad458	0.9173026
39	0x3e6e7156	0.23285422
40	0x3f79b4a0	0.97541237
41	0x3f02fda1	0.51168257
42	0x3eb9498b	0.3618892
43	0x3e296889	0.16543783
44	0x3e92c3cd	0.2866501
45	0x3e97c405	0.2964174
46	0x3e83daec	0.25752962
47	0x3eb78e74	0.3585087
48	0x3e3e80d1	0.18603827
49	0x3f05c068	0.52246714
50	0x3ebe08dc	0.37116134
51	0x3ebf2394	0.3733183
52	0x3ea270d5	0.3172671
53	0x3df1761c	0.11790106
54	0x3f3eb7b4	0.7449906
55	0x3ebceb87	0.36898443
56	0x3e96fa3e	0.29487795
57	0x3d377df6	0.04479786
58	0x3ee4b321	0.44667915
59	0x3f383501	0.7195588
60	0x3f49c7f4	0.7882073
61	0x3f3e6c41	0.7438393
62	0x3e6ff4db	0.23433249
63	0x3f63ae07	0.8893742
64	0x3f0b823a	0.54495585
65	0x3e5c2ae3	0.21500735
66	0x3e23c6c8	0.15993798
67	0x3e6c4bb3	0.23075752
68	0x3eabdffb	0.3356932
69	0x3f06deac	0.5268352
70	0x3ed4aa0f	0.41535994
71	0x3e2b5882	0.16732982
72	0x3ea919ee	0.33027595
73	0x3ef6ec96	0.48227376
74	0x3f3df530	0.7420225
75	0x3eb62092	0.35571724
76	0x3e9c1598	0.30485225
77	0x3f689ef8	0.9086757
78	0x3dc21efa	0.094785646
79	0x3f15c9f7	0.585113
80	0x3f3f72c7	0.7478451
81	0x3f5f26ea	0.87168753
82	0x3e3ddc4f	0.18541072
83	0x3ec082c8	0.37599778
84	0x3f1118d6	0.5667852
85	0x3ef84e0d	0.48497048
86	0x3e5dc13e	0.21655747
87	0x3eb1f6a9	0.347585
88	0x3eb86085	0.3601114
89	0x3e7de016	0.24792513
90	0x3f7643df	0.96197313
91	0x3f1fec02	0.62469494
92	0x3ee6f3a8	0.4510777
93	0x3dd6897e	0.10475443
94	0x3e7e6ea8	0.248469
95	0x3f9c5d34	1.2215943
96	0x3f19a45f	0.60016435
97	0x3e2e6e15	0.1703418
98	0x3ea9e404	0.33181775
99	0x3eefa416	0.46804875
100	0x3ed9273e	0.42412752
101	0x3e02e297	0.1278175
102	0x3e8179ec	0.25288332
103	0x3e3c211e	0.18372008
104	0x3f42913f	0.7600288
105	0x3f168d4d	0.5880936
106	0x3eba4fcf	0.36389014
107	0x3e05e0ab	0.13073985
108	0x3f087946	0.5331005
109	0x3f39fcb8	0.72651243
110	0x3e3cc534	0.18434602
111	0x3eb949b6	0.3618905
112	0x3e1ffbec	0.15623444
113	0x3f23b5ec	0.63949466
114	0x3e8ff258	0.2811458
115	0x3f50e048	0.81592226
116	0x3e92f4bc	0.28702343
117	0x3e4ad01e	0.19805953
118	0x3f27aeda	0.6550118
119	0x3dafcad2	0.08583607
120	0x3e7ce059	0.24694957
121	0x3ef78991	0.48347142
122	0x3e01ed00	0.12688065
123	0x3f69a4c7	0.91267055
124	0x3f40650e	0.751542
125	0x3f9fdbba	1.248893
126	0x3f29845e	0.662176
127	0x3ea99a4b	0.3312553
128	0x3f648b58	0.8927512
129	0x3ec583b9	0.3857706
130	0x3f5b4fb3	0.85668486
131	0x3f05dae7	0.52287143
132	0x3f665a9e	0.8998202
133	0x3f153801	0.5828858
134	0x3f17ab54	0.592458
135	0x3ef7d6c4	0.4840604
136	0x3f331965	0.69960624
137	0x3edfbb37	0.4369752
138	0x3eff9c61	0.49923995
139	0x3e6dfc49	0.2324077
140	0x3e3945d7	0.18093048
141	0x3ec199ef	0.37812755
142	0x3e9cf3cb	0.3065475
143	0x3ede9b1b	0.4347771
144	0x3e9de1aa	0.3083623
145	0x3e909fe3	0.28246984
146	0x3f133ca8	0.5751443
147	0x3f02e675	0.511329
148	0x3e0ce530	0.13759303
149	0x3e1a5024	0.15069634
150	0x3f09d469	0.5383974
151	0x3f5ecf06	0.8703464
152	0x3e6c8cde	0.23100612
153	0x3e29b530	0.16573024
154	0x3e681262	0.22663262
155	0x3f809f86	1.0048683
156	0x3ef49711	0.47771505
157	0x3ed175e9	0.4091027
158	0x3f145ff3	0.57958907
159	0x3ebc56c0	0.36784935
160	0x3e8467ab	0.25860342
161	0x3f345d6f	0.7045507
162	0x3eb10c4f	0.34579703
163	0x3e85934f	0.2608895
164	0x3f15cd2d	0.585162
165	0x3dbed8f8	0.09318727
166	0x3dd56353	0.10419335
167	0x3e99c7bc	0.30035198
168	0x3eb3aae1	0.35091308
169	0x3f3036fe	0.6883391
170	0x3ed700d5	0.41992822
171	0x3e90a2d0	0.28249216
172	0x3e6a3525	0.22871836
173	0x3f24b474	0.6433785
174	0x3e551ecb	0.20812528
175	0x3e83c29a	0.25734407
176	0x3ecb01a5	0.39649692
177	0x3ddd4e18	0.10805911
178	0x3f32e3ac	0.6987865
179	0x3ed35217	0.41273567
180	0x3e79f3b5	0.24409373
181	0x3eaf3fbc	0.34228313
182	0x3ea6dde8	0.32591176
183	0x3f25182a	0.64489996
184	0x3ed65dc9	0.41868427
185	0x3e1b0341	0.1513796
186	0x3eb211b5	0.34779134
187	0x3dc0139d	0.09378741
188	0x3f2bc068	0.67090464
189	0x3f105983	0.56386584
190	0x3ed6c696	0.41948384
191	0x3ec8276a	0.3909257
192	0x3f233e95	0.6376737
193	0x3f843e8f	1.0331591
194	0x3e847953	0.25873813
195	0x3f4d2d39	0.8014713
196	0x3eedf11f	0.46473023
197	0x3e3ac775	0.1824015
198	0x3e81ec54	0.25375617
199	0x3e9af982	0.30268484
200	0x3eb6c2f7	0.3569562
201	0x3ed7dfdf	0.42162988
202	0x3e8307bd	0.2559184
203	0x3ea63eef	0.3246989
204	0x3ee934dd	0.45548144
205	0x3eadf242	0.3397389
206	0x3d9601cc	0.073245615
207	0x3e33464f	0.1750729
208	0x3f135454	0.5755055
209	0x3e1324f2	0.14369562
210	0x3f2e1294	0.679971
211	0x3f03692c	0.51332355
212	0x3ede79c6	0.4345228
213	0x3f209302	0.62724316
214	0x3f225be7	0.6342148
215	0x3f2f6a62	0.685217
216	0x3ebf272e	0.3733458
217	0x3f1c11fb	0.60964936
218	0x3f1212c1	0.57059866
219	0x3e7227ad	0.23647948
220	0x3f1ce280	0.6128311
221	0x3e14ed1d	0.14543577
222	0x3ee1695a	0.4402569
223	0x3fa7adf1	1.3099958
224	0x3ef6578d	0.4811367
225	0x3f2bc5c6	0.67098653
226	0x3eb3d96a	0.3512681
227	0x3e71ae3f	0.23601626
228	0x3f18e9ee	0.5973195
229	0x3e78ca34	0.24295884
230	0x3e9634d8	0.29337192
231	0x3ed4715d	0.4149274
232	0x3ed8ff87	0.42382452
233	0x3d621498	0.05519542
234	0x3ec4e3b1	0.38454965
235	0x3f15b2db	0.58476037
236	0x3f21a9d5	0.6314977
237	0x3f2358df	0.6380748
238	0x3e68e946	0.22745237
239	0x3f0c0da1	0.54708296
240	0x3dbd464f	0.09241926
241	0x3f87b609	1.0602428
242	0x3eb76cb9	0.35825136
243	0x3f672886	0.9029621
244	0x3e6fa730	0.2340362
245	0x3e6c02f7	0.23048006
246	0x3e947479	0.28995112
247	0x3efee384	0.49782956
248	0x3e484043	0.19555764
249	0x3f0a39aa	0.5399424
250	0x3e91b9c6	0.28462046
251	0x3e6ed446	0.23323163
252	0x3e08088e	0.13284513
253	0x3f977878	1.1833639
254	0x3ef39380	0.4757347
255	0x3f7f70a3	0.99781245

net.1.bias f4 [256]
0	0xbe03dd46	-0.12877378
1	0xbdb26c11	-0.08712018
2	0xbe806754	-0.25078833
3	0xbe88c0ef	-0.26709697
4	0xbe9349b6	-0.28767174
5	0xbe902dd6	-0.2815997
6	0xbe91d563	-0.28483114
7	0xbe7bdd7e	-0.24596211
8	0xbe9dfbe0	-0.30856228
9	0xbe71b3f7	-0.23603807
10	0xbdbf69f1	-0.093463786
11	0xbe80a690	-0.25127077
12	0xbe0f8d83	-0.14018826
13	0xbe650868	-0.22366488
14	0xbd08542a	-0.03328339
15	0xbe1e5233	-0.15461044
16	0xbeccb424	-0.39981186
17	0xbd1ebb8f	-0.03875309
18	0xbf3480e3	-0.70509166
19	0xbcbe045b	-0.023195436
20	0xbe04050a	-0.12892547
21	0xbe640dac	-0.2227084
22	0xbe0f66d2	-0.14004067
23	0xbe287e20	-0.16454363
24	0xb38f7d49	-6.681746e-08
25	0x3cfa8bab	0.030584177
26	0xbe692f44	-0.22771937
27	0xbe97105b	-0.29504666
28	0xbd8442e5	-0.064580716
29	0xbe2c1394	-0.16804343
30	0xbdaf6551	-0.085642464
31	0xbd73f31c	-0.05955802
32	0xbe6d22b1	-0.23157765
33	0xbd1dd8bd	-0.038536776
34	0x3c9848f3	0.018589472
35	0xbe8a14a8	-0.26968884
36	0xbefc498a	-0.49274856
37	0xbece03c4	-0.40237248
38	0xbea92aca	-0.33040458
39	0xbe4eb532	-0.20186308
40	0xbedbf68f	-0.42961547
41	0xbe09ed8f	-0.13469528
42	0xbe8a570e	-0.27019542
43	0xbe216cb7	-0.15764128
44	0xbe7289f5	-0.23685439
45	0xbe1d1072	-0.15338305
46	0x3c2f0bd8	0.010683976
47	0xbea62e17	-0.3245704
48	0xbe8f498e	-0.27985805
49	0xbe0141d4	-0.12622768
50	0xbe65d9ab	-0.22446315
51	0xbe873970	-0.2641101
52	0xbdb84cd7	-0.08999031
53	0xbdf3a16e	-0.11896025
54	0xbe68e972	-0.22745302
55	0xbe60ca16	-0.2195209
56	0xbe928cc8	-0.28623033
57	0xbc6bed64	-0.01439986
58	0xbe791ba5	-0.24326952
59	0xbe83eb22	-0.2576533
60	0xbe6f5e1b	-0.23375742
61	0xbea16038	-0.31518722
62	0xbe696d7f	-0.22795676
63	0xbebaec05	-0.36508194
64	0xbe01e9f6	-0.12686905
65	0xbe5577de	-0.20846507
66	0xbe8aad6e	-0.2708544
67	0xbe976bdc	-0.29574478
68	0xbe58ed8f	-0.21184371
69	0xbe57d3a3	-0.21076827
70	0xbe89dc74	-0.26926005
71	0x3caf41af	0.021393625
72	0xbe7523ec	-0.23939484
73	0xbe315519	-0.17317618
74	0xbe12115d	-0.14264436
75	0xbeb64b15	-0.35604158
76	0xbe581979	-0.21103467
77	0xbe52c3dc	-0.20582527
78	0x3d29674d	0.04135828
79	0xbda48eb7	-0.08035033
80	0xbe9efcf7	-0.31052372
81	0xbebabcd2	-0.36472183
82	0xbe48c179	-0.19605054
83	0xbe56b2f6	-0.20966706
84	0xbdec195d	-0.11528275
85	0xbde9b081	-0.114106186
86	0x3ba6a659	0.005085748
87	0xbd517fa0	-0.051147103
88	0xbe6ee668	-0.2333008
89	0xbd8b7e80	-0.06811237
90	0xbed6d3e4	-0.41958535
91	0xbe659e3f	-0.22423647
92	0xbe40eeb3	-0.18841057
93	0xbe08ed0a	-0.13371673
94	0xbd078d9f	-0.033094045
95	0xbf1361b8	-0.5757098
96	0xbe3bd700	-0.18343735
97	0xbe5b6255	-0.2142423
98	0xbe9cfae9	-0.3066018
99	0xbe3cb54f	-0.18428539
100	0xbe489884	-0.1958943
101	0xbdb93bbc	-0.090445966
102	0xbe6b944b	-0.23005788
103	0x3cf94a93	0.030431068
104	0xbe2e714c	-0.17035407
105	0xbda44202	-0.080204025
106	0xbe51f3fe	-0.20503232
107	0xbdc296e5	-0.09501437
108	0xbe445341	-0.19172384
109	0xbe4e2627	-0.20131741
110	0xbe92a128	-0.28638577
111	0xbdceb5b3	-0.1009325
112	0xbe3c3e89	-0.1838323
113	0xbe3df6f4	-0.18551236
114	0xbdecf4f1	-0.11570156
115	0xbea2d04b	-0.3179954
116	0xbcb659c4	-0.0222596
117	0xbdc83e4d	-0.09777508
118	0xbea3f90a	-0.3202594
119	0xbd182300	-0.037142754
120	0xbe076f0b	-0.13225953
121	0xbe2b0679	-0.16701688
122	0xbdf390f8	-0.11892885
123	0xbea69489	-0.32535198
124	0xbebfb0c0	-0.37439537
125	0xbe2ba121	-0.16760685
126	0xbedf1ed6	-0.43578213
127	0xbefc1e7e	-0.49242014
128	0xbec24cf0	-0.37949324
129	0xbeb87591	-0.36027196
130	0xbe01dda0	-0.126822
131	0xbed3988c	-0.41327322
132	0xbec04947	-0.37555906
133	0xbec16d9a	-0.37778932
134	0xbdbce55a	-0.09223433
135	0xbda4a2e2	-0.0803888
136	0xbe2064a1	-0.15663387
137	0xbd4d9a8f	-0.050196227
138	0xbdf6bd22	-0.12047793
139	0xbe92b440	-0.28653145
140	0xbd7bc53a	-0.061467387
141	0xbdd1fd57	-0.10253399
142	0xbe35d1c0	-0.17755795
143	0xbe060ed8	-0.130916
144	0xbd86e905	-0.06587414
145	0xbdc6a2f4	-0.096990496
146	0xbe15b68b	-0.14620416
147	0xbe6275c6	-0.2211524
148	0xbe4c2c26	-0.19938716
149	0x3c5d2d1e	0.013499526
150	0xbe0dbc14	-0.13841277
151	0xbea9a348	-0.33132386
152	0x3cfbac7e	0.0307219
153	0xbdb13a0d	-0.086536504
154	0xbe4bc5a4	-0.19899613
155	0xbed28d09	-0.41123226
156	0xbe7cde96	-0.24694285
157	0xbd453555	-0.048146565
158	0xbe30bc5d	-0.17259355
159	0xbe5fb4a5	-0.21846254
160	0xbd349568	-0.044087797
161	0xbf356de0	-0.7087078
162	0xbd50e9db	-0.051004272
163	0xbe4bfe55	-0.19921239
164	0xbe04956b	-0.12947623
165	0xbd80774a	-0.062727526
166	0xbd93ff68	-0.07226449
167	0xbd97152c	-0.07377085
168	0xbe5f7277	-0.21821009
169	0xbe94840d	-0.29006997
170	0xbda23bb7	-0.07921546
171	0xbe5cab65	-0.21549757
172	0xbeaf905e	-0.3428983
173	0xbe51c369	-0.204847
174	0xbe23ac92	-0.15983799
175	0xbe76e50a	-0.24110809
176	0xbe66e244	-0.22547251
177	0x3c49271a	0.012277389
178	0xbe1dc53c	-0.1540727
179	0xbd88cdac	-0.06679854
180	0xbe803de7	-0.25047228
181	0x3bd4eeb6	0.006498183
182	0xbdd4fbd0	-0.10399592
183	0xbf1b01a2	-0.60549366
184	0xbe8b7829	-0.27240112
185	0xbe7e0811	-0.24807765
186	0xbe2c30e1	-0.16815521
187	0x3c9a3dbf	0.018828271
188	0xbe3acd72	-0.18242434
189	0xbe87481f	-0.26422212
190	0xbd8e529f	-0.069493525
191	0xbe4c9a1f	-0.19980668
192	0xbe09d6fc	-0.13460916
193	0xbef03660	-0.46916485
194	0xbcfcf5a0	-0.030878842
195	0xbea4be52	-0.32176453
196	0xbd5ef3dc	-0.05443178
197	0xbe4f59ef	-0.2024915
198	0xbe312a38	-0.17301261
199	0xbef6eccf	-0.48227546
200	0xbe560e9d	-0.20904012
201	0xbe8094c0	-0.25113487
202	0xbded83fd	-0.115974404
203	0xbe748623	-0.23879294
204	0xbe9b58f2	-0.30341297
205	0xbc9d6580	-0.019213438
206	0xbb965dd5	-0.0045888224
207	0xbea6fd90	-0.32615328
208	0xbde746a5	-0.11292771
209	0x3d28b37d	0.0411868
210	0xbd9ce670	-0.0766114
211	0xbe6375a5	-0.22212847
212	0xbebf8f70	-0.37414122
213	0xbe123986	-0.14279756
214	0xbf27023a	-0.6523777
215	0xbe6cec87	-0.23137103
216	0xbe507551	-0.20357253
217	0xbe5f52bb	-0.21808903
218	0xbe0cc17c	-0.13745683
219	0xbdaf6517	-0.08564203
220	0xbe250a2b	-0.1611716
221	0xbdc0434a	-0.09387834
222	0xbde84493	-0.113412045
223	0xbf116afd	-0.56803876
224	0xbe1c8a06	-0.15287027
225	0xbe81f0e1	-0.2537909
226	0xbda720ed	-0.08160577
227	0xbdd6c06f	-0.104859225
228	0xbea128b2	-0.3147636
229	0xbe7c94b3	-0.24666099
230	0xbdc65f06	-0.09686093
231	0xbe73dfbf	-0.23815821
232	0xbe49607a	-0.19665709
233	0x3c01e19e	0.0079273265
234	0xbe6c5a0d	-0.23081227
235	0xbe886691	-0.26640752
236	0xbe7fbc88	-0.24974263
237	0xbd002ca0	-0.031292558
238	0xbe1f0c7f	-0.1553211
239	0xbe6cf781	-0.2314129
240	0x3d04cd5f	0.03242242
241	0xbe4b1523	-0.19832282
242	0xbeaa612f	-0.3327727
243	0xbec98e96	-0.39366597
244	0xbbb4b7c7	-0.005515072
245	0xbeb9b6c5	-0.36272255
246	0xbe2b34f0	-0.16719413
247	0xbe55da83	-0.20884137
248	0xbe053253	-0.13007478
249	0xbe0c3111	-0.13690592
250	0xbe5b2ec6	-0.21404561
251	0xbdb3b75f	-0.0877521
252	0xbdb32de8	-0.0874899
253	0xbf029950	-0.51015186
254	0xbe015b26	-0.12632427
255	0xbec82575	-0.39091077

net.1.running_mean f4 [256]
0	0xbcf461b2	-0.029831741
1	0xbad8d45c	-0.001654278
2	0xbd8ba957	-0.068194084
3	0xbd323795	-0.04351004
4	0xbd813c6e	-0.06310354
5	0x3e1c5f00	0.15270615
6	0x3c10acd2	0.008830266
7	0xbe04662e	-0.12929603
8	0xbe1feaa0	-0.15616846
9	0x3cce2f43	0.02516902
10	0xbd905cb5	-0.070489325
11	0x3cb085a3	0.021548098
12	0x3daf3171	0.08554352
13	0xbd3beb64	-0.045878783
14	0x3ce302dc	0.027711324
15	0x3d246130	0.040131748
16	0xbe4e0c70	-0.20121932
17	0x3ce2afb2	0.027671669
18	0xbd972864	-0.07380751
19	0xbd61a37b	-0.055087548
20	0x3ce4c3a2	0.027925316
21	0xbd2d913c	-0.042374834
22	0xbca45d04	-0.020063885
23	0x3c7091c0	0.014683187
24	0x2e47d678	4.5437848e-11
25	0xbbff8cc3	-0.0077987625
26	0x3debc137	0.11511462
27	0xbc9fe702	-0.019519333
28	0x3bb3996a	0.005480935
29	0xbd726a5c	-0.059183463
30	0xbde67aa3	-0.1125386
31	0x3d0531b7	0.032518115
32	0x3d33cdbe	0.043897383
33	0x3e172b32	0.14762571
34	0xbdb0e5f8	-0.08637613
35	0xbc8d1942	-0.017223958
36	0x3e11f4ba	0.14253512
37	0xbd8434a5	-0.06455354
38	0x3d0011e3	0.031267058
39	0x3d945ea3	0.07244613
40	0xbd2e33ff	-0.042530056
41	0xbd55e2ea	-0.052218355
42	0x3ddc4665	0.10755614
43	0xbd62c67f	-0.055365082
44	0xbd098bfd	-0.03358077
45	0x3dad673e	0.084669575
46	0xbe437e0e	-0.19091055
47	0xbcb96d90	-0.022635251
48	0xbcd84aef	-0.026402919
49	0x3d16c2aa	0.03680674
50	0x3bdbf579	0.006712612
51	0x3dbab4cc	0.091165155
52	0x3b8fa5e8	0.0043837912
53	0xbd90ad68	-0.070643246
54	0x3dc489e8	0.09596616
55	0x3e38b9b9	0.18039598
56	0xbec30f23	-0.38097486
57	0xbb19c77e	-0.0023464854
58	0x3d618a56	0.055063568
59	0xbda7f821	-0.08201624
60	0xbd13ca9e	-0.036081903
61	0xbe2a42d7	-0.1662706
62	0x3a71ad79	0.000921927
63	0xbdf1c5f5	-0.118053354
64	0xbda8288c	-0.08210859
65	0x3a851646	0.0010153733
66	0x3d1ffb63	0.0390581
67	0x3e12520a	0.14289108
68	0x3e28619e	0.16443488
69	0xbd042738	-0.032263964
70	0x3e097250	0.13422513
71	0xbc1ae247	-0.009453363
72	0xbd31b414	-0.043384627
73	0x3d59a98d	0.05314021
74	0xbd159b8e	-0.0365253
75	0xbd9329ed	-0.07185731
76	0xbc712679	-0.014718645
77	0x3d3d563a	0.04622481
78	0xbc8d4a36	-0.0172473
79	0x3d3fe473	0.046848726
80	0xbe50ecba	-0.20402804
81	0x3d8ad5ab	0.06779035
82	0xbe25cabf	-0.16190623
83	0xbd6c0e1b	-0.05763064
84	0xbd0fc62d	-0.035101105
85	0x3e405290	0.18781495
86	0x3cad1b4a	0.021131177
87	0xbc87417d	-0.01651072
88	0x3c430e6d	0.011905295
89	0x3cd139af	0.025540201
90	0xbdc25ba0	-0.09490132
91	0x3d6fb3e0	0.05852115
92	0xbd7d6f71	-0.061873857
93	0xbce00d4b	-0.027350089
94	0xbd8258b8	-0.06364578
95	0xbe309b00	-0.17246628
96	0xbdc4eb08	-0.09615141
97	0x3cb4d74f	0.022075323
98	0x3d33cc4f	0.043896016
99	0xbd4887f3	-0.048957776
100	0x3d08afb6	0.033370696
101	0xbc8afc86	-0.016966116
102	0xbc6b4b2d	-0.014361185
103	0xbd80f5d6	-0.062968895
104	0xbc190de2	-0.009341689
105	0x3c8c7ca7	0.017149283
106	0x3dd92fba	0.10604806
107	0xbdc34b05	-0.09535793
108	0x3d9041f0	0.070438266
109	0x3e0bf85a	0.13668957
110	0xbd9a4243	-0.0753217
111	0x3c3646e5	0.011125301
112	0x3c2062c6	0.009789174
113	0xbd3a0e31	-0.04542369
114	0x3ccb5246	0.024819504
115	0x3ce27fa9	0.027648764
116	0xbe53ae6c	-0.20672005
117	0xbcb5673d	-0.022143954
118	0x3db66d36	0.08907549
119	0x3c73bab9	0.014876061
120	0xbc26357a	-0.010144586
121	0xbdba643b	-0.09101149
122	0xbd7a9e26	-0.06118598
123	0x3d5c4b58	0.05378279
124	0xbce364be	-0.027757999
125	0xbce8c3a9	-0.02841361
126	0xbdd002ed	-0.10156808
127	0xbe20f894	-0.15719825
128	0xbe0a001d	-0.13476606
129	0x3c0738a4	0.00825325
130	0xbd4ef8ea	-0.05053035
131	0xbcc024f7	-0.023455126
132	0x3d213272	0.03935475
133	0xbd13fb2b	-0.036128204
134	0xbcd17c6a	-0.02557202
135	0x3d470851	0.048591916
136	0xbe165fba	-0.14684954
137	0x3c0fa90a	0.008768329
138	0xbd328088	-0.04357961
139	0xbd27e98c	-0.040994212
140	0xbd8a84db	-0.067636214
141	0xbd53fb1f	-0.05175316
142	0x3da1bccf	0.078973405
143	0xbd01952f	-0.031636413
144	0xbd3328c0	-0.043740034
145	0xbd7b8e50	-0.061415017
146	0x3d66ad18	0.05631742
147	0xbc8b2a7a	-0.016988028
148	0x3db2ad6a	0.08724482
149	0x3d104f23	0.03523172
150	0x3c5195e4	0.012792084
151	0xbd3697be	-0.044578306
152	0xbdbb37be	-0.09141491
153	0xbd638212	-0.055543967
154	0x3d93e7b8	0.07221931
155	0x3ca5049c	0.0201438
156	0x3d368e70	0.044569433
157	0x3c13f3e0	0.009030312
158	0x3c6ea339	0.0145652825
159	0x3db4a58e	0.088206396
160	0x3d539b71	0.051661912
161	0xbdc340c7	-0.0953384
162	0x3cd7b188	0.02632977
163	0x3d481964	0.04885234
164	0xbdd4d850	-0.10392821
165	0xbd7a8cc7	-0.061169412
166	0xbd251ff8	-0.04031369
167	0x3cc83a70	0.024441928
168	0x3d40637b	0.046969872
169	0xbe6641b0	-0.22485995
170	0x3d20219f	0.039094564
171	0xbd28d99c	-0.041223153
172	0x3c1bb0f5	0.009502639
173	0xbd37b07d	-0.044846047
174	0x3c5dee9a	0.013545657
175	0x3d8c22c5	0.06842569
176	0xbb17821a	-0.0023118318
177	0x3e64817d	0.22315021
178	0x3cfa8de4	0.030585237
179	0x3d3a0fa2	0.045425065
180	0xbd102d61	-0.035199527
181	0xbe0af252	-0.13569
182	0xbd01388c	-0.031548068
183	0xbe092c04	-0.13395697
184	0x3cc4f5e8	0.024043038
185	0x3c3bece0	0.01147005
186	0x3e1459e6	0.14487419
187	0x3d1fb4d2	0.038990803
188	0x3de6d8e7	0.112718396
189	0x3e092cd8	0.13396013
190	0x3c843cf6	0.01614235
191	0x3cee2b5f	0.029073415
192	0x3e0e6b6f	0.1390817
193	0x3e4a07d1	0.19729544
194	0x3d39c674	0.045355275
195	0xbdcef4ee	-0.101053104
196	0x3dd7ae7d	0.10531328
197	0x3d902b4a	0.07039507
198	0xbd37accf	-0.044842537
199	0xbdb7b0d0	-0.08969271
200	0xbc8913f4	-0.016733147
201	0xbe0c83a2	-0.13722089
202	0x3d88a42f	0.066719405
203	0xbe01edd9	-0.12688388
204	0x3e03da52	0.12876251
205	0xbd4805af	-0.048833545
206	0xbc6eb753	-0.014570075
207	0x3b84468e	0.004036731
208	0x3e08673d	0.13320632
209	0xbc3dea65	-0.011591529
210	0xbbd1628c	-0.0063899215
211	0xbce280c3	-0.027649289
212	0xbd91a545	-0.07111601
213	0x3dbae402	0.0912552
214	0xbe5c93a9	-0.21540703
215	0xbe125455	-0.14289983
216	0xbd6a28ce	-0.05716782
217	0x3d0ab970	0.033868253
218	0x3ab31336	0.0013662342
219	0xbd854120	-0.06506562
220	0xbe176669	-0.1478516
221	0xbd64dc06	-0.055873893
222	0xbd7b3231	-0.061327163
223	0xbdfefca7	-0.12450533
224	0x3dcad4c4	0.09903863
225	0xbd1e9f33	-0.038726043
226	0x3dc1e968	0.09468347
227	0x3c3d5ad4	0.0115573
228	0x3d8890cb	0.06668242
229	0xbc826fb8	-0.015922412
230	0x3c9162da	0.017747331
231	0xbd36f241	-0.044664625
232	0xbc9cddf9	-0.019148814
233	0x3e0d04a7	0.13771306
234	0x3e322d66	0.1740013
235	0x3d855c36	0.065117285
236	0x3ddd3bc8	0.10802418
237	0x3e2d58a9	0.16928352
238	0x3d96fae1	0.0737207
239	0xbd05a28c	-0.03262572
240	0x3d8ad99b	0.06779786
241	0x3e0c4f21	0.1370206
242	0x3d01d8c8	0.03170088
243	0xbe674359	-0.22584285
244	0xbdf50963	-0.11964681
245	0x3d266c2a	0.040630497
246	0xbd3c524c	-0.045976922
247	0x3d856da4	0.06515053
248	0xbd1da6f8	-0.038489312
249	0x3e2bbaf4	0.16770536
250	0xbbadfb94	-0.0053095315
251	0x3ceb1eff	0.028701304
252	0xbd1ac52d	-0.037785698
253	0x3d74f43a	0.059803225
254	0xbe29d740	-0.16586018
255	0x3c799222	0.015232595

net.1.running_var f4 [256]
0	0x3e7515e2	0.23934129
1	0x400d8e92	2.2118268
2	0x3f6b4dc9	0.91915566
3	0x400acf0f	2.1688879
4	0x3e0eb453	0.13935976
5	0x3e8e88bf	0.27838704
6	0x3ef70849	0.4824851
7	0x3ec3486d	0.38141194
8	0x3fb4cdad	1.4125267
9	0x3eb51928	0.35370755
10	0x4010c3ec	2.2619581
11	0x3e765af2	0.2405813
12	0x3eb25312	0.34829003
13	0x3f559b40	0.8344002
14	0x3fa409a6	1.2815444
15	0x3e5678cf	0.20944522
16	0x40536ad9	3.3033965
17	0x3fc41287	1.5318154
18	0x3e26db0f	0.16294502
19	0x3f91b9ef	1.1384867
20	0x3eea9345	0.45815483
21	0x3fd58c19	1.668338
22	0x3fcd2f27	1.6030015
23	0x3ebe5d85	0.37180725
24	0x2523cbbb	1.4207023e-16
25	0x3dffa431	0.12482489
26	0x3e5dbeb5	0.2165478
27	0x3e9cc269	0.30617073
28	0x3be7bf4c	0.007072365
29	0x3eabce30	0.33555746
30	0x4014e70f	2.3266027
31	0x40325edc	2.7870398
32	0x3ece0799	0.40240172
33	0x3e39a1b9	0.18128099
34	0x3f74cbe6	0.95623624
35	0x40150f5f	2.3290632
36	0x3e629381	0.22126581
37	0x3f35bcfe	0.70991504
38	0x3e029c5c	0.12754959
39	0x3ea7b62d	0.32756177
40	0x3f0d5f08	0.5522313
41	0x3fd595a6	1.6686294
42	0x3f6e369c	0.9305208
43	0x3f07f2bf	0.53104776
44	0x3ec2e08a	0.38061935
45	0x3f6da5c9	0.92831093
46	0x3fd8d47c	1.6939845
47	0x3d6bbeaa	0.05755488
48	0x3e9a1fcd	0.30102387
49	0x401376df	2.3041303
50	0x3f4fa8df	0.8111705
51	0x3ea84fa6	0.32873267
52	0x3e67b48b	0.22627465
53	0x3e77e51a	0.24208489
54	0x3ffb366c	1.9625983
55	0x3ea8cdad	0.32969418
56	0x3e76da44	0.24106699
57	0x3f0c0476	0.54694307
58	0x3ea2c5da	0.31791574
59	0x40389bb6	2.8845038
60	0x4057a856	3.3696494
61	0x3ff48e8c	1.9106002
62	0x3f290e31	0.6603728
63	0x3e933144	0.28748524
64	0x4016d89f	2.3569715
65	0x3d923ed3	0.07140889
66	0x3ead5ea4	0.33861268
67	0x3e9869da	0.29768258
68	0x3ec46b4b	0.38363108
69	0x3e6a175f	0.22860478
70	0x3eb86967	0.36017916
71	0x3d20e641	0.039282087
72	0x3e470ee1	0.1943927
73	0x3f3c6eaf	0.7360639
74	0x404d0863	3.203637
75	0x3e21f20d	0.15814991
76	0x3f0b6217	0.5444655
77	0x3c3c4af0	0.011492476
78	0x3ef14f1e	0.47130674
79	0x3e7d3009	0.24725355
80	0x3fc8db27	1.569188
81	0x3e9dbe0d	0.3080906
82	0x3e576ddb	0.21038
83	0x3ec93343	0.39296922
84	0x40310a10	2.7662392
85	0x4030e0fc	2.763732
86	0x3f677f89	0.9042898
87	0x3fa4a982	1.286423
88	0x3e9d8be9	0.30770805
89	0x3f617180	0.8806381
90	0x40399945	2.8999798
91	0x4039bdb0	2.9022026
92	0x3ef280e9	0.47363976
93	0x3e9b4d3a	0.30332357
94	0x3fb18967	1.3870057
95	0x3efa0173	0.4882923
96	0x3fccda26	1.6004074
97	0x3e458d7c	0.19292253
98	0x3e82cbf3	0.25546226
99	0x3f90dd27	1.131749
100	0x3eb8be99	0.36082914
101	0x3db61d26	0.088922784
102	0x3e0d929c	0.13825458
103	0x3fa8c74b	1.3185819
104	0x402002c4	2.5001688
105	0x3e2b9998	0.1675781
106	0x3eed591e	0.46357054
107	0x3e08f147	0.1337329
108	0x3fb5b527	1.4195908
109	0x4054e590	3.3265114
110	0x3ed2b747	0.41155455
111	0x3feb0992	1.8362296
112	0x3ee84ae8	0.4536965
113	0x40147d52	2.320149
114	0x3f892840	1.0715408
115	0x3f5c2e2c	0.8600795
116	0x3fbd41f3	1.4785751
117	0x3e33aaae	0.17545578
118	0x3def704b	0.1169134
119	0x3e9f9308	0.31166863
120	0x3f202722	0.6255971
121	0x3fba8f75	1.457503
122	0x3e7e943b	0.24861233
123	0x3ea65add	0.32491198
124	0x3e060b7c	0.13090318
125	0x3e45c5c3	0.19313721
126	0x3e4fa994	0.20279533
127	0x3e4ef51d	0.20210691
128	0x404d72c5	3.21013
129	0x3edd1ca0	0.43185902
130	0x3e1869ab	0.14884059
131	0x3e5daa03	0.21646886
132	0x3e9f658b	0.3113216
133	0x3e9408da	0.28913003
134	0x404dfa98	3.21842
135	0x4019f700	2.4057007
136	0x4010940c	2.259036
137	0x400ef4ce	2.2336917
138	0x4021c842	2.5278478
139	0x3e9e8dda	0.309676
140	0x3e356c0b	0.17716996
141	0x3fbc4008	1.4707041
142	0x3f684661	0.9073239
143	0x3fe01bcb	1.7508482
144	0x3ffd0f25	1.9770247
145	0x3f3ab1ee	0.7292775
146	0x4012196a	2.2828012
147	0x3ff15e6a	1.8856938
148	0x3e7a6941	0.24454214
149	0x3f2ac232	0.6670257
150	0x402ac915	2.668523
151	0x4008ace4	2.1355524
152	0x3fb4a250	1.4112034
153	0x3e4fbd4f	0.20287059
154	0x3e91a86e	0.28448814
155	0x3e890b54	0.26766455
156	0x3dc992e6	0.09842472
157	0x3f09241b	0.5357072
158	0x4011f6c7	2.280687
159	0x3f911f71	1.133772
160	0x3f76b7e3	0.9637434
161	0x3cb05304	0.02152396
162	0x3fa11758	1.2585249
163	0x3e22639d	0.15858312
164	0x3fd780ca	1.6836178
165	0x3e3bb03a	0.18328944
166	0x3e2b792b	0.1674544
167	0x3f2db1d6	0.6784948
168	0x3ee70422	0.4512034
169	0x401441a5	2.3165066
170	0x4006f961	2.1089709
171	0x3f34c2a5	0.70609504
172	0x3e5ea758	0.21743524
173	0x3fd86447	1.6905602
174	0x3e84b2b8	0.25917602
175	0x3ea51059	0.32239035
176	0x3e7655e5	0.24056204
177	0x3e1b1539	0.15144815
178	0x404b97b8	3.1811352
179	0x400ee548	2.2327442
180	0x3e170ef0	0.14751792
181	0x3fbd76ff	1.480194
182	0x3f20a725	0.6275504
183	0x3cff4896	0.031162541
184	0x3ec0deae	0.3766989
185	0x3e4e356b	0.20137565
186	0x3e8db850	0.27679682
187	0x3eff3f68	0.49853063
188	0x404225fb	3.0335681
189	0x3e623923	0.22092108
190	0x400e44fd	2.2229607
191	0x3ed6d369	0.41958168
192	0x403b4c3e	2.9265285
193	0x3e82d73e	0.25554842
194	0x3f6708ff	0.902481
195	0x401e8874	2.4770784
196	0x402c749f	2.694618
197	0x3edc1f65	0.42992702
198	0x3edfe43f	0.43728825
199	0x3e1d984b	0.15390126
200	0x3f557e53	0.8339588
201	0x3e55a5dd	0.20864053
202	0x3f57c10a	0.8427893
203	0x3ea1e662	0.3162108
204	0x3d4f7946	0.050652765
205	0x3fbab14f	1.458536
206	0x3f44ae98	0.7682891
207	0x3e9466ee	0.2898478
208	0x401c9bfc	2.4470205
209	0x3f38017b	0.7187726
210	0x3e0c6c6e	0.13713238
211	0x3f9ce762	1.2258112
212	0x3e24a753	0.16079454
213	0x404d65f8	3.2093487
214	0x3e9b733a	0.30361348
215	0x3fc5e128	1.5459337
216	0x3ed40641	0.4141102
217	0x3f0958c2	0.5365106
218	0x404dcb09	3.2155173
219	0x3e7f3d6f	0.24925779
220	0x3fea47ec	1.8303199
221	0x3edbc621	0.42924598
222	0x3fe24bb4	1.7679353
223	0x3e333535	0.17500766
224	0x3fe40543	1.7814106
225	0x405e2dfc	3.4715567
226	0x3fadba6a	1.3572514
227	0x3eb77a2b	0.35835394
228	0x3f99980a	1.1999524
229	0x3e67bf8f	0.22631668
230	0x3f2510a1	0.644785
231	0x3f971315	1.1802698
232	0x3fbb3924	1.4626813
233	0x3ec97cad	0.39352933
234	0x3eefb5ff	0.4681854
235	0x3d840161	0.064455755
236	0x3fa407e5	1.2814909
237	0x3e2c88af	0.16849016
238	0x3f1cb76d	0.61217386
239	0x3db4fff2	0.0883788
240	0x3ee25fbf	0.44213673
241	0x3e64862e	0.2231681
242	0x3efd90f0	0.4952464
243	0x405e13e0	3.469963
244	0x3fd17d55	1.6366373
245	0x3e2ddbc4	0.16978365
246	0x3f1a0bd2	0.60174286
247	0x3fae5b0c	1.3621535
248	0x3e735d03	0.2376595
249	0x3ff6ca1b	1.9280428
250	0x3edf1333	0.43569335
251	0x3f0af0a2	0.54273427
252	0x3e87c332	0.2651611
253	0x3e4f5ac5	0.2024947
254	0x40245bb9	2.5680983
255	0x3fc04618	1.5021391

net.4.weight f4 [128, 256]
0	0xbdaf128e	-0.08548461
1	0xbcacc596	-0.02109031
2	0x3e1dfdf6	0.1542891
3	0x3d16338a	0.036670245
4	0xbdea4ac2	-0.1144004
5	0x3bf641b2	0.0075151557
6	0x3a93f900	0.0011289418
7	0x3d10b89d	0.03533231
8	0xbc3da6e5	-0.011575435
9	0x3cac54b7	0.021036489
10	0xbdc0a4f1	-0.0940646
11	0xbd70d60c	-0.05879788
12	0x3cd46adb	0.025929859
13	0xbd186043	-0.037201177
14	0xbe823cdc	-0.25437057
15	0x3b8279f3	0.0039818226
16	0x3c61ab42	0.013773741
17	0xbe5294d4	-0.20564586
18	0xbe80902f	-0.25110003
19	0xbe2cd2dc	-0.16877311
20	0xbc21f80d	-0.0098858
21	0x3da03f2d	0.0782455
22	0x3cf23013	0.02956394
23	0x3d14f0e8	0.03636256
24	0x83d45c6d	-1.248146e-36
25	0xbb99cb8f	-0.0046934555
26	0x3c1a63f0	0.009423241
27	0xb972e371	-0.00023163647
28	0x35991ee6	1.1408381e-06
29	0xbc17ee7d	-0.009273169
30	0xbda84c69	-0.08217699
31	0xbe17da6a	-0.14829412
32	0xbd582930	-0.052773654
33	0xbbd2e615	-0.0064361193
34	0xbe684c03	-0.22685246
35	0xbb8935fd	-0.004187344
36	0xbd777a79	-0.060419533
37	0x3ba1068b	0.00491411
38	0x3e2320be	0.15930459
39	0x3d91d640	0.07120943
40	0x3b0014d8	0.0019543674
41	0xbdde76fc	-0.10862538
42	0x3cf0d7e1	0.029399814
43	0xbbff8548	-0.007797871
44	0xbd00dd2c	-0.031460926
45	0x3c0d5e6a	0.008628467
46	0xbe30cb3f	-0.17265032
47	0x3cb97f53	0.02264372
48	0xbdb4007f	-0.08789157
49	0x3ce65b26	0.028119635
50	0x3d2a837a	0.041629292
51	0xbdcedf07	-0.10101133
52	0x3c19c6d6	0.009385785
53	0xbd36cb3a	-0.044627406
54	0x3cd46696	0.025927823
55	0x3d62bc5d	0.05535542
56	0x3dcbb5f6	0.09946816
57	0xbd3f80f8	-0.046753854
58	0x3c15a0cd	0.009132576
59	0xbd4ba0f9	-0.049714062
60	0x3d42c12a	0.047547497
61	0x3cc7791a	0.024349738
62	0x3c0dd4b1	0.008656667
63	0x3cfbe812	0.030750308
64	0xbd8d0ec0	-0.06887579
65	0xbc0a62b5	-0.008446385
66	0x3dba0dbb	0.0908465
67	0xbca9494f	-0.02066484
68	0x3d0992bf	0.033587214
69	0xbada5aa3	-0.0016659092
70	0x3aa1e7af	0.0012352372
71	0x3ccc046c	0.024904452
72	0xbd0fe639	-0.035131667
73	0x3d936520	0.071970224
74	0xbcb79bcd	-0.022413159
75	0xbe504854	-0.20340091
76	0xbd41845f	-0.04724538
77	0xbb689fdd	-0.0035495677
78	0xbc5c3eb8	-0.013442688
79	0xbb971cc8	-0.0046115853
80	0x3d119492	0.03554208
81	0x3ca4012d	0.020020092
82	0x3d11a72c	0.03555982
83	0x3b83c933	0.0040217876
84	0xbda511a8	-0.08060008
85	0xbbb99e00	-0.005664587
86	0xbe64650c	-0.22304171
87	0xbe6bee4e	-0.23040125
88	0x3bff6d2b	0.0077949963
89	0xbc37406d	-0.011184794
90	0x3c6a6060	0.014305204
91	0xbd046244	-0.032320276
92	0xbb33ace5	-0.0027416286
93	0xbd68a10a	-0.056794204
94	0xbe08e968	-0.13370287
95	0xbbcbf247	-0.00622395
96	0xbc41f5be	-0.011838375
97	0x3b26bcb2	0.002544206
98	0x3d9f9eb9	0.07793946
99	0x3d5e5ad9	0.054285858
100	0x3c48def3	0.0122601865
101	0x3ca0941b	0.019601872
102	0xbd0232ca	-0.031786717
103	0xbe5a36ef	-0.21310018
104	0x3ced052f	0.028933136
105	0xbd2749b2	-0.040841766
106	0x3a92a7c9	0.001118892
107	0xbd9c16f7	-0.07621568
108	0x3c627b5f	0.013823359
109	0xbdd00041	-0.101562984
110	0xbc4071d7	-0.0117458915
111	0xbda02097	-0.07818716
112	0xba2d2b23	-0.0006605854
113	0xbd369ef5	-0.044585187
114	0xbd2bcac7	-0.04194143
115	0x3d76099b	0.060067754
116	0xbe5bde27	-0.21471463
117	0x3cb55467	0.022134973
118	0xbcd3153f	-0.025766967
119	0xbccef767	-0.025264455
120	0xbd203b6d	-0.039119173
121	0xbd095a98	-0.033533663
122	0xbc962227	-0.018326832
123	0x3d54f7dd	0.051994193
124	0xbe1e1478	-0.15437496
125	0x3cd716b4	0.026255943
126	0x3c853da1	0.016264739
127	0x3babf0cf	0.0052472125
128	0x3c65e60f	0.014031901
129	0xbc640477	-0.01391708
130	0x3c7569ba	0.01497882
131	0x3bf0a570	0.0073439404
132	0x3db72a5f	0.089436285
133	0xbc836f4d	-0.016044283
134	0x3aa2c50c	0.0012418344
135	0xbdb41624	-0.087932855
136	0x3bbb411f	0.00571455
137	0xbe17d931	-0.14828946
138	0xbe0a6958	-0.13516748
139	0x3c4ffa6a	0.012693981
140	0x3c9ff2f3	0.019525027
141	0xbe3b6bdb	-0.18302862
142	0xbc99fc2c	-0.018797003
143	0xbcf03d05	-0.029325971
144	0xbdba5895	-0.09098927
145	0xbd56822b	-0.05237023
146	0xbe19eccb	-0.15031736
147	0x3be49e5c	0.0069768857
148	0xbd654dc4	-0.055982366
149	0xbe1485b8	-0.14504135
150	0xbd74d577	-0.05977389
151	0x3d47f325	0.048815865
152	0xbe9052ab	-0.2818807
153	0x3c38c466	0.011277294
154	0xbdbf5ced	-0.09343896
155	0x3d4ff2b0	0.050768554
156	0x3da12866	0.078690335
157	0x3d08f0ce	0.033432774
158	0xbcda81cd	-0.026673222
159	0xbd58089b	-0.05274258
160	0xbd130ebf	-0.035902735
161	0xbcd2c14e	-0.02572694
162	0xbdf31b86	-0.11870484
163	0xbd5026bb	-0.050818186
164	0x3d31ed57	0.043439236
165	0x3ca3966d	0.01996919
166	0xbcc26863	-0.023731416
167	0xbd3f4f96	-0.04670676
168	0x3c3819be	0.011236606
169	0x3cb7e059	0.022445844
170	0xbd85a824	-0.06526211
171	0xbcfae82d	-0.030628288
172	0xbd75d5e1	-0.060018424
173	0x3d8fa639	0.07014126
174	0x3c3aab98	0.01139345
175	0x3d022066	0.03176918
176	0x3c2a29c4	0.010385934
177	0xbd900a67	-0.07033234
178	0x3bae359b	0.005316449
179	0xbe191437	-0.14949118
180	0x3d155467	0.036457445
181	0xbe52cba9	-0.20585503
182	0xbbae1756	-0.0053128405
183	0xbdf85309	-0.12125213
184	0xbd226a08	-0.0396519
185	0xbc6f24e2	-0.014596196
186	0xbd098134	-0.033570483
187	0xbcc7b357	-0.024377508
188	0xbc2e1a85	-0.01062644
189	0xbbeb603e	-0.007183104
190	0xbe06bc3f	-0.13157748
191	0xbc8160d4	-0.015793242
192	0xbd1006c3	-0.0351627
193	0xbc999949	-0.01874985
194	0x3c8cb13d	0.017174358
195	0x3beeb0ce	0.0072842604
196	0xbdf24853	-0.11830201
197	0xbd2fa40f	-0.042881068
198	0x3906b3c5	0.00012846205
199	0xbd9c93f5	-0.07645408
200	0xbd8fa905	-0.0701466
201	0xbc2a5250	-0.010395601
202	0xbd9156f1	-0.07096661
203	0x3d382a4c	0.044962212
204	0x3d72c372	0.059268422
205	0xbe51a598	-0.20473325
206	0xbbbc3050	-0.005743064
207	0x3d168f6f	0.036757883
208	0xbdc3358f	-0.095317
209	0x3c1356b1	0.008992837
210	0xbc5aac69	-0.01334677
211	0x3cbb4618	0.022860572
212	0xbe86aead	-0.26305142
213	0xbd2955af	-0.04134148
214	0xbe9473a5	-0.2899448
215	0x3ce37d4e	0.02776971
216	0x3ba96bb9	0.0051703122
217	0x3d866b12	0.06563391
218	0xbd9c2b49	-0.076254435
219	0xbd1a9f6a	-0.037749685
220	0xbcb37b20	-0.021909297
221	0x3d82dabb	0.06389376
222	0xbe082843	-0.13296609
223	0xbd92a15b	-0.07159682
224	0xbc55988e	-0.01303686
225	0xbc12c5fe	-0.008958338
226	0xbe0c8cb6	-0.13725552
227	0x3d27a18b	0.040925544
228	0xbce777ff	-0.02825546
229	0x3c98baa7	0.01864369
230	0xbd8ac8c7	-0.067765765
231	0xbdc917aa	-0.09818967
232	0xbb1056c9	-0.0022024384
233	0xbcd68e80	-0.026190996
234	0x3c8f4c33	0.01749239
235	0x3d3dd6a4	0.046347275
236	0x3c626972	0.013819085
237	0xbad560fb	-0.0016279513
238	0x3c635b58	0.0138767585
239	0xbb4fa741	-0.0031685384
240	0xbd92b731	-0.07163847
241	0x3c7628eb	0.015024404
242	0x3b004b90	0.0019576289
243	0x3c45be03	0.012069228
244	0xbe2ff3dc	-0.17182869
245	0x3c0beb80	0.008540034
246	0xbc194057	-0.009353719
247	0xbd36cc5c	-0.044628486
248	0xbc6719a7	-0.014105237
249	0xbceb5ca9	-0.028730707
250	0x3cf66b82	0.03008056
251	0xbda24ac2	-0.07924415
252	0x3baf4d9c	0.005349828
253	0xbda9d39a	-0.08292313
254	0xbd61b035	-0.055099685
255	0x3d52abe2	0.05143345
